tutorial_notebooks/lightning_logs/version_0/checkpoints/epoch=4-step=385.ckpt (torch, 274722 bytes, 147 tensors)

embedding_network.weight f8 [32, 100]
-0.12687895737035718 -0.12382263509802069 -0.11972470725711488 -0.03256612060881813 -0.10375455787049208 0.028129293145221987 -0.002816378806627635 -0.03635086842867509
-0.0752349868898715 -0.0830017411977988 -0.041368295483071846 -0.05848443023914855 -0.05180543245888793 -0.07381384567343209 -0.04496536838398542 -0.04139893224079616
0.013999776647070175 0.004698548689029008 -0.003047062032336337 -0.03980106711938048 0.05527433750417551 0.03482550407991905 -0.07088828438964744 -0.021122031366215984
0.050894556006789334 -0.0224232190352106 -0.031261682737602096 -0.08548743987496157 -0.06975291142990485 0.04263226556290937 -0.06418244467338667 -0.05698924332222713
0.005133947033277742 0.07256177341875521 -0.09361374255067881 -0.05271420171171797 -0.036321617251456315 -0.04437845609592415 0.03684719031589606 0.00047845832301705556
0.015068227750214462 -0.005070861401779406 -0.015221459076040028 0.04064673428128733 -0.030957561304045738 -0.10169734657095732 -0.039353543060175356 0.031848494287750606
0.055958025472715514 0.02739948928867663 -0.06581642438968574 0.011822104653887704 0.044012188324619055 -0.004661368140467691 0.007198488836190393 0.016485693280851893
0.014159391993521677 0.07526576277313342 -0.06148404371041418 -0.023499382610669337 -0.00553762916035956 0.009797247094727575 -0.07596622552021252 0.046588792866029155
0.01960207377987622 0.003447971238008516 0.05766697891425805 -0.08540991839902891 -0.004847143839262705 -0.08247872813186875 -0.09581691994544987 -0.03346595625237866
0.06209943031984656 0.030227523640513804 0.03725670102748927 0.055723222100318874 0.0684038447237463 0.07177611695159955 -0.049690460982920105 0.01927240559370421
0.051662316059574075 -0.05274321434195392 0.08558004061765659 -0.010487406432215358 -0.026374726787636218 0.03470954143283482 -0.08629592749539158 0.06466892415247784
0.09141226630419537 0.08779860089430451 0.046170377949727094 0.08374931209727925 0.09673435315814563 -0.09197717253032398 -0.09467070527576224 0.0269016355163527
0.09315522295184585 0.06793840318205846 -0.0808624103084321 0.01643477016942175 0.10272553741509222 0.08064284599610828 0.13008108246272979 0.031059895169422532
0.07362989619670315 0.09461241516761625 0.008588260661817875 0.03162266904522557 0.08857010954812444 0.091884926739626 0.07347722981782266 0.10509529987672565
0.08789504121781627 0.011062559768939021 0.02123461874310191 0.09855845517989625 0.0807300626468968 -0.02384453619865981 0.04351908394322088 0.084312065605883
0.007603398287055964 -0.0029314014188381353 0.0035868364178259526 0.0932465320242794 -0.03945774443530044 0.024462035068128638 0.06767217443694452 0.004208563968196171
0.045659925957627995 0.08707144791825766 0.045692604738096165 0.027211677920503802 0.0008390441281430287 0.08512630111627599 -0.04242191579616881 -0.020061718943993802
-0.011080219750480038 0.014344845996957541 -0.04094656471556941 0.0725960476302461 -0.019511110115347292 0.08831163399571715 0.06418335855650593 -0.02391093303477115
-0.02179692766988474 0.030596218757184258 0.04761382457939257 -0.041794414804120966 -0.019488102614225605 -0.019558239552767274 0.0884122682318725 0.000948088751021792
-0.001612117562509505 -0.0772573844285315 0.014537879689757793 -0.0897337719316584 -0.07505703400817079 -0.09132420628194146 -0.009078399390512816 0.06503375532507337
-0.038418270587961094 0.07849184182294351 -0.060202602268478816 0.0029667475750754435 0.0073712666208942705 -0.07626131204285436 0.05756027431859237 -0.08471787192538704
0.08538516952398345 -0.0013638789968350843 0.058560122946475716 -0.07597811686184232 0.04335309828872343 0.014939161496211809 -0.08681994675950526 0.004388322668596143
0.04746310141721456 0.08442994825764595 0.016726595304477333 0.061806292596162715 -0.048870571407789755 -0.06584167752689156 -0.04538311136030889 0.07425182595325189
-0.0194408291079649 -0.01796884327108515 0.01177240875984256 0.05757558177233716 0.012252587811244811 0.06195467873350965 -0.07260599107266755 -0.029120603101891265
0.08682345515663203 0.05576478073488877 -0.07316067285856032 0.0006821301983311765 0.08909240767504392 -0.045794562478160404 -0.048178111340937864 -0.0016948087303298917
-0.02207425803261744 0.05489227036068486 -0.011494875586992985 -0.029836808708404477 -0.05723817341534872 -0.09810488162185833 -0.029079354753795635 0.03013561439350551
-0.13012411516370254 -0.001423423404766561 -0.04643189895463967 -0.1067798321159547 -0.10289189326899596 -0.09105460605789223 0.052861443273203364 0.030871724656107918
0.03912950587068413 -0.09176791860600983 0.018244379881129848 -0.034162894884270614 -0.03684220553512106 -0.02873632705252703 -0.013324463117092749 -0.07093510629020087
-0.1150527301103487 0.004418792040047708 -0.0014479244547735254 -0.004875087182819513 -0.009339648864262716 0.03636577072977476 -0.07568560039103041 0.027057631862577137
-0.05212092220230664 -0.062271122281948275 0.09548195607524239 0.09844244245965805 -0.101473816262184 0.005254232810117219 -0.044077341713474286 0.0700133944828536
0.07211667561906342 -0.08252312486181541 -0.0964902609161533 0.03875623096152911 -0.05806775659309887 0.061167242401862894 -0.03423802558217314 -0.09229318659141525
-0.07264494517406912 -0.07211421667912926 0.029589358486653786 0.085244050733993 -0.060107676213696046 -0.09796581468129312 0.04137075781233491 -0.0010795969484634054
00000000: cd66 3ad6 913d c0bf 6e23 4018 d7b2 bfbf
00000010: 8546 3146 47a6 bebf ffe6 f1ad 81ac a0bf
00000020: 2b5d dda0 a88f babf 4c2a 79e8 eccd 9c3f
00000030: c27c c3db 5f12 67bf e22a 2abe 949c a2bf
00000040: 17fd 34a0 9942 b3bf 50a2 f423 9a3f b5bf
00000050: 5ed2 61a8 392e a5bf a698 67d6 abf1 adbf
00000060: e305 55dc 3d86 aabf 41cd 28d5 76e5 b2bf
00000070: bad8 5265 b305 a7bf 4088 20a8 3d32 a5bf
00000080: b5c3 cd36 eaab 8c3f 2c25 540f c93e 733f
00000090: 6d79 e3f8 26f6 68bf c14d 3f33 ce60 a4bf
000000a0: 7be9 c6ff ea4c ac3f 2410 2e02 a6d4 a13f
000000b0: 5f82 1f0f bc25 b2bf 8f9d c587 03a1 95bf
000000c0: 69ec 2feb d90e aa3f 5e87 b5c1 1cf6 96bf
000000d0: efac f301 8801 a0bf 6a52 7b3e 81e2 b5bf
000000e0: eb68 64a9 53db b1bf d5b4 b174 e5d3 a53f
000000f0: 7b7a d9bc 426e b0bf 94e3 95b0 b12d adbf
00000100: 8199 b769 5507 753f 05f8 c58b 6893 b23f
00000110: aa19 b6fa 11f7 b7bf 47ed c518 5bfd aabf
00000120: 0e36 773c bf98 a2bf 3d6e 28e3 c5b8 a6bf
00000130: e867 b68a a2dd a23f c83e 90d9 325b 3f3f
00000140: cfb3 2a4b 17dc 8e3f 2a8d 21fe 2ec5 74bf
00000150: 9094 6ea7 6d2c 8fbf 26cb da14 a6cf a43f
00000160: eb8b 75c5 56b3 9fbf b9bb 9c59 d608 babf
00000170: 50b1 d9c8 2526 a4bf 2014 c922 724e a03f
00000180: ca45 b5c2 87a6 ac3f 7e18 b099 9c0e 9c3f
00000190: 7219 4b5e 58d9 b0bf d6df dd06 3036 883f
000001a0: 4f92 f5fa c388 a63f ff9e 7c7b cc17 73bf
000001b0: bbe9 1ca2 297c 7d3f 38fb f825 a0e1 903f
000001c0: 81ec 586c 99ff 8c3f 7d7d 9ef5 9d44 b33f
000001d0: 9393 ec29 d67a afbf c9f3 27df 3810 98bf
000001e0: 4f07 4202 a0ae 76bf e4c7 e63e 9410 843f
000001f0: 43ba 35c6 8572 b3bf 447e 707b 7cda a73f
00000200: e1fc 45e7 9012 943f aeae 8d76 eb3e 6c3f
00000210: 5ae1 fdb8 8686 ad3f b121 47a6 6cdd b5bf
00000220: b75a 4c44 99da 73bf 492a f16f 531d b5bf
00000230: 4bb4 9129 7587 b8bf 3b44 4427 7322 a1bf
00000240: a2df a51c 7fcb af3f b579 e6c5 f6f3 9e3f
00000250: d598 f070 4f13 a33f efe3 1811 c187 ac3f
00000260: d257 0214 ea82 b13f cee4 f06a eb5f b23f
00000270: 658a b031 0771 a9bf d6f8 f53e 25bc 933f
00000280: 53ae d2ab 7b73 aa3f 3c85 5e99 2801 abbf
00000290: e2a7 a4d3 92e8 b53f 0478 2bdd 6b7a 85bf
000002a0: 47af f9f3 f901 9bbf 7659 a0f2 72c5 a13f
000002b0: cee5 5e6a 7d17 b6bf e169 4d82 248e b03f
000002c0: add1 3a56 cb66 b73f 8bc0 7917 f879 b63f
000002d0: 3d13 adce a4a3 a73f 2333 854c 9870 b53f
000002e0: 6ac5 3623 95c3 b83f ee0c ffe3 d08b b7bf
000002f0: 8e74 0cdf 563c b8bf bbaf 0133 1a8c 9b3f
00000300: c79e 074c 05d9 b73f 1035 cf43 6964 b13f
00000310: 6f1d c01f 66b3 b4bf e26b 94c1 46d4 903f
00000320: b46e a987 384c ba3f 99ab 3572 02a5 b43f
00000330: e5ba 8035 7fa6 c03f 7f22 e147 2ace 9f3f
00000340: 0a37 2cac 68d9 b23f b3c3 f0ec 8438 b83f
00000350: d651 60d5 b896 813f 4d13 b9b2 d830 a03f
00000360: 948e e9db 87ac b63f 9090 5743 c585 b73f
00000370: 2777 115b 67cf b23f c310 ef8b 86e7 ba3f
00000380: fcd6 8217 4a80 b63f cf52 57a3 f7a7 863f
00000390: 14b9 2d24 87be 953f 88ef bd7d 203b b93f
000003a0: 1459 dfb2 b9aa b43f a868 a5bc b36a 98bf
000003b0: 5d76 9324 2248 a63f 387b 6fbc 7995 b53f
000003c0: b5ae b3af bd24 7f3f 8a21 3627 9803 68bf
000003d0: c58f 8a23 2462 6d3f 7c7b 8235 01df b73f
000003e0: 6ada d833 ce33 a4bf 09e3 7162 930c 993f
000003f0: 694e 0eb0 f652 b13f 2c55 b4c9 ff3c 713f
00000400: 3c9b 73e1 bc60 a73f ac6a 397d 504a b63f
00000410: a8d1 0966 0565 a73f b88e f3ca 60dd 9b3f
00000420: c622 8e8b 697e 4b3f 13e8 5257 d6ca b53f
00000430: 0dd8 f449 53b8 a5bf 8761 102b 0f8b 94bf
00000440: 8eba afeb 39b1 86bf 917c 62a3 d460 8d3f
00000450: 8980 acb8 f2f6 a4bf 3209 6492 a795 b23f
00000460: b291 6a6f b8fa 93bf 7630 de5b 979b b63f
00000470: 3198 f211 526e b03f 0fd1 9a8d 1b7c 98bf
00000480: a452 fb0d ef51 96bf 4d02 c67b 9d54 9f3f
00000490: 91db cfd6 d660 a83f e472 7ad9 1366 a5bf
000004a0: 1b88 8e6d b0f4 93bf 6662 fc3c 1307 94bf
000004b0: 95fe 9eb8 2fa2 b63f 36bf f416 2511 4f3f
000004c0: f58c 540d b669 5abf 1abb 7ed3 23c7 b3bf
000004d0: 26c7 902e 09c6 8d3f dd0e cbdf caf8 b6bf
000004e0: ca5c 6612 f036 b3bf 9e68 50ef 0561 b7bf
000004f0: 07b5 db23 b297 82bf 87db 415c 0da6 b03f
00000500: 0f04 7d3f 8fab a3bf 85e1 a195 0a18 b43f
00000510: ec21 c11f e0d2 aebf 2e18 ef79 b84d 683f
00000520: 03c4 1151 5531 7e3f 8092 2c81 dc85 b3bf
00000530: 8489 7e4f 8a78 ad3f a866 4e09 12b0 b5bf
00000540: a83e ab6e cddb b53f ba93 f9eb 8558 56bf
00000550: cf48 cfa9 97fb ad3f 911e 2247 4d73 b3bf
00000560: 6a22 a996 6032 a63f 9577 7250 6c98 8e3f
00000570: 23f8 f8ff d439 b6bf 17df 8865 7df9 713f
00000580: f213 b568 154d a83f c9ce 917a 339d b53f
00000590: 4d81 39cf c620 913f c869 c60a 13a5 af3f
000005a0: 25d8 dd43 9005 a9bf 5318 b10b 00db b0bf
000005b0: 1ba0 2a86 743c a7bf 4233 23ec 2a02 b33f
000005c0: 0e41 e7f4 4be8 93bf 7bf8 c8a8 6c66 92bf
000005d0: 0f08 f3f4 211c 883f 254e 85f1 8b7a ad3f
000005e0: 357b 867f e217 893f 9b3d fd0d 86b8 af3f
000005f0: 3299 2665 4e96 b2bf 6784 d997 cad1 9dbf
00000600: b067 6cdc 0f3a b63f 4fc7 0c8b 338d ac3f
00000610: 30e7 4769 a8ba b2bf 9873 5c72 1f5a 463f
00000620: 4245 4991 c2ce b63f c34d 5b88 6272 a7bf
00000630: c14b 2f29 cdaa a8bf dba7 7604 8bc4 5bbf
00000640: 0590 5561 a29a 96bf 9b31 01f4 d61a ac3f
00000650: e9e5 bd15 a08a 87bf cb79 7a56 8a8d 9ebf
00000660: 8aab cd65 524e adbf 3dd2 24ca 661d b9bf
00000670: 1f16 a076 fac6 9dbf 1855 0fd9 dedb 9e3f
00000680: f246 8631 e8a7 c0bf 8284 323e 4552 57bf
00000690: 78b1 00ff ebc5 a7bf 1b76 cf4e ec55 bbbf
000006a0: f125 9d84 1f57 babf 2c37 2bcb 5a4f b7bf
000006b0: 29d1 27b4 a710 ab3f 0b8f 135f d69c 9f3f
000006c0: 96e4 0b58 c808 a43f fe1b 3c31 1a7e b7bf
000006d0: 8a75 b39b a7ae 923f 527d 8788 cc7d a1bf
000006e0: ce8e c547 fbdc a2bf 5c4f 9743 0e6d 9dbf
000006f0: 69ed 982a db49 8bbf 339a a799 cd28 b2bf
00000700: cab3 2381 1874 bdbf 921a cc74 7019 723f
00000710: b68a 8a0b 09b9 57bf a4e8 3e40 e6f7 73bf
00000720: 6cd0 6c73 aa20 83bf d0d8 f4c7 889e a23f
00000730: 4d25 75aa 2160 b3bf 9df1 d3ef feb4 9b3f
00000740: 59b0 97f0 97af aabf 9b53 5f23 00e2 afbf
00000750: bb86 b366 8171 b83f 5810 e71e 8633 b93f
00000760: a113 3f22 30fa b9bf be41 5c61 7685 753f
00000770: 9ad7 4e2a 4e91 a6bf 30f7 95d7 65ec b13f
00000780: cfb5 470b 3d76 b23f 0dfa 714a 3c20 b5bf
00000790: 5f73 04f3 95b3 b8bf 6cf2 fd50 dbd7 a33f
000007a0: 17f5 0997 0ebb adbf d1ae 6713 5051 af3f
000007b0: 0f62 4f80 a587 a1bf d6c2 0dba 86a0 b7bf
000007c0: fd09 beef db98 b2bf 1ca9 36ca 1376 b2bf
000007d0: 8108 0a3c ac4c 9e3f a8c0 14da 8dd2 b53f
000007e0: 7e1b 27ef 6ec6 aebf 6ca1 2ea2 4914 b9bf
000007f0: 5122 a147 8c2e a53f 7868 8965 28b0 51bf

embedding_network.bias f8 [32]
0.07503833194700944 0.10046319431533714 0.05645274426359898 0.00014385755360380603 -0.08902706869876623 -0.03819489619507789 0.10830142433570777 -0.06529565577107523
0.09410823223501044 -0.1460499979279338 -0.019880223115181433 0.07015081644091137 -0.019469898315753395 -0.02340196432033766 -0.024085528785694654 -0.09520484824413199
-0.09086909660583835 -0.03262535287475204 -0.10852347078040897 0.012043227503995717 -0.026223565401370153 -0.11309278022004024 -0.09500365292764051 0.029525618712838878
-0.13239642913762267 0.20332003128371676 0.0038845984388892816 0.035633195250430634 -0.12370040803045937 -0.05500583461807465 0.11161888154598403 -0.015584326986512178
00000000: f5a6 a84d b635 b33f a13b 09b6 f4b7 b93f
00000010: 4962 c3c4 5fe7 ac3f 0691 dcf9 0edb 223f
00000020: 321b 855c 7aca b6bf f25e 100c 488e a3bf
00000030: 38d0 a163 a4b9 bb3f 698e 1b52 37b7 b0bf
00000040: 92d6 bb23 7a17 b83f 4336 572e c4b1 c2bf
00000050: 5bb1 7730 7b5b 94bf 08c3 6666 67f5 b13f
00000060: 1c26 17c2 eaef 93bf 950a ac3d aff6 97bf
00000070: f304 c479 e0a9 98bf 9712 a14d 585f b8bf
00000080: b39e 2376 3243 b7bf 872b 3c2f 45b4 a0bf
00000090: 2cab d9b5 31c8 bbbf 9cc2 24a2 1eaa 883f
000000a0: 1d34 22af 59da 9abf 2a73 7500 a6f3 bcbf
000000b0: dc22 53ce 2852 b8bf 2130 10bb f63b 9e3f
000000c0: 2e6b a0be 5df2 c0bf 031d 7e0a 6406 ca3f
000000d0: 8f93 19e8 97d2 6f3f 7152 81a0 833e a23f
000000e0: 3220 fe76 d4aa bfbf 8431 8c89 b929 acbf
000000f0: 5329 db15 0e93 bc3f 1bde e5f5 acea 8fbf

logratios_1d.ptrans.online_z_score._mean f8 [2]
4.98311694950376 0.02739493979759018
00000000: 380c a935 b6ee 1340 14b2 064a 6b0d 9c3f

logratios_1d.ptrans.online_z_score._M2 f8 [2]
408293.2862691979 409442.62845918635
00000000: abc0 2325 95eb 1841 11ce 8a83 8afd 1841

logratios_1d.ptrans.online_z_score.epsilon f8 []
1.000000013351432e-10
00000000: 0000 00e0 df7c db3d

logratios_1d.classifier.net.initial_layer.weights f8 [2, 16, 33]
-0.03584547826313122 -0.01746576192492197 0.022210768418269064 0.014714144178561943 -0.017641099444013323 0.019563714277250708 0.08185312756866583 -0.05321495577995839
-0.042071241663028974 0.0007682115136471324 0.006833214540514069 -0.03972355538828371 -0.032148580225429754 -0.004356764942981725 -0.008579248751212389 0.0023203401044159435
0.03564758725130973 0.03492546008567812 0.020019101591950292 0.020457730072387752 -0.03393265815232797 -0.016718443554340993 -0.000891813678926517 -0.037019232940088194
0.01815560478838365 0.00960306603947653 -0.02935427154831265 -0.030270632814086353 0.03655459781457864 -0.01816298356751695 -0.008164069441184836 -0.009742022300094756
0.07962435393177314 -0.009582314807811899 0.016203436862568924 -0.01479327915260006 0.027892221983266356 -0.018923586606389913 -0.00032179229671656934 -0.014271378791032047
-0.04932522606391998 -0.07340101241707446 0.00593992238476703 0.005333616821217849 -0.020793078928982862 -0.041393661085777765 -0.03797003679540556 -0.036330180314869946
0.02616772794135785 -0.04540200802997745 0.030086690079729438 0.04459014190627934 0.02371219045557173 0.03584836357104649 0.015201822460577497 -0.04830819716234294
-0.04664600738383115 -0.031831146185078804 0.005686298373858781 -0.04709574906434498 0.019268891848573836 -0.0021573556663207617 -0.02840535624219974 0.026589268927672376
0.02165374340736959 0.11499944467963975 0.028837238206416767 0.01961281901610615 0.04523507139955991 -0.02967360160633299 0.0213543136542131 0.020330286078903078
0.010608016726562973 0.023131559549432454 0.0009814759353323915 -0.011919189903776752 -0.001608485868243229 -0.011288547956956059 0.02358973626460286 0.01041434633030733
0.04704851448695089 -0.008163969397166468 0.010997027032631992 0.01637714718635744 -0.019064912331825595 -0.014362917827447618 0.00827612963261149 -0.021736746746580448
-0.009202828231587926 -0.0465403352649665 -0.010039031567474765 -0.010905405962880577 0.026689073835440502 0.034021673976599213 0.017326285951166295 -0.029575683862117914
0.0008068591169569092 -0.005654854673713542 -0.18257601598972611 -0.009632550388889872 -0.008680743680195013 -0.024320339521078368 0.014239957460103436 0.017422566367720764
-0.02993937091730463 0.019657962025684986 0.007220462627368598 -0.005273978482363675 -0.009752420347094774 -0.0001311193182943437 0.0007149758279589165 -0.02555314607965007
-0.0024288027482379827 0.02279715109088512 0.0014605980595417264 -0.009982297923428708 -0.002776705310988105 0.005582308552241502 0.0018806355990713156 0.019752274571464157
-0.009356977356199971 -0.0028574322984031147 0.0026776304223279134 -0.008557117638269328 -0.005057382272902009 0.0022193596103902043 -0.023352756317724953 0.003247985238226946
-0.017663167439816607 -0.00757174700527451 0.003876401858797933 0.14116866824353946 0.002440336157627528 0.00870798938816995 0.005211176897766354 -0.028632595819389567
0.0028560996398010637 -0.019684286735753034 -0.010958072747991153 -0.019628359534413855 -0.011286604221795882 0.009206045201613755 0.0008253765338022808 -0.001109731795796432
-0.009979264948851296 -0.0024177050891874808 -0.01911327820880638 0.0038387077729972706 -0.01073683442703199 0.013964757853735691 -0.04862994995576633 -0.008326501143877413
-0.026793641488574736 0.00047453946437385643 -0.03943266965143543 -0.030875810480649378 -0.0066949061737137765 0.005872205518376254 -0.01130351214283911 0.013470085827808603
-0.026817248074236695 -0.031240624406018044 0.01321476449100053 0.007925072687568407 -0.19288017873523433 0.018401232185486623 0.004791147374833927 -0.06363867095046136
0.00027512800159043224 -0.03688648634875559 0.002233252088936065 -0.03935980187046925 -0.07282962020607317 0.021154040025601326 -0.007948193794620192 0.047584014061573414
-0.0023743893826879345 0.03713859427904809 -0.025125384204926122 -0.0779924007410765 0.04542745261016911 -0.012270847424791573 0.04371698175177128 -0.043317109849841155
-0.05513558613244022 -0.006964350880920295 -0.06056083030836449 0.0019162355593646562 -0.04647903007469588 -0.013043706400044496 0.0012811437764572466 -0.059740332734582825
0.020862594424635433 -0.024494466206305826 -0.03782888131866058 0.000934825890254447 0.024401298081435107 -0.09144600325156066 0.005083986438999261 -0.0025636096394938395
-0.021627613638115006 0.03511936800052627 -0.004109175592691659 0.026918656899221342 0.040311852646935736 -0.022990011178304532 0.012585314468713683 0.03547771576810309
0.0014651797669552385 -0.0053203081505933 -0.03242314789602275 0.011197766083624001 0.006564454862649438 -0.04806784831695918 0.008541319830684508 0.015386783064359056
0.02601526865720976 -0.015720762020653544 0.007042853074729261 0.026007833758076703 0.011421557657004353 0.010230281912177328 -0.007637783392575636 -0.02976251083447952
-0.005955678113136271 -0.031132633708504675 0.018173217023013537 -0.0016718898122757295 -0.006699682930737973 -0.030725544731976414 -0.1820819027051367 -0.03257904043229166
0.0013119974344943564 0.0001618905712858746 0.019287108414441586 -0.04166383435082518 -0.0007346566302984214 -0.0023193810402435274 0.03727624168772795 0.004174181676703949
-0.01813445144002386 0.015005288235690462 -0.018220389210822554 0.017083928853500716 -0.015158036547111394 0.039439553003027525 0.003113229559469669 0.05822463273849156
-0.022861306591002023 0.010893659979134662 0.006613819614842449 -0.004614327046289681 -0.013273586434820909 0.024726411380904943 -0.02207582805118524 -0.015124098873077828
00000000: 5f02 b3a9 565a a2bf 18ad 1171 8be2 91bf
00000010: 3ce8 e66f 6bbe 963f a9cf 4800 7322 8e3f
00000020: 11c8 b524 8210 92bf 494c 09a4 8208 943f
00000030: 9294 fb99 53f4 b43f c14c 779d fd3e abbf
00000040: ecf2 169e 5c8a a5bf 9a57 eca9 392c 493f
00000050: d121 a60f 25fd 7b3f 390b 8c56 a556 a4bf
00000060: feb2 5c59 c775 a0bf 56b9 242f 66d8 71bf
00000070: 7453 7c46 ff91 81bf ec68 a61b 1b02 633f
00000080: f8f2 d98a 6640 a23f 6442 bbf9 bfe1 a13f
00000090: dce9 872a e37f 943f ebf8 7106 dff2 943f
000000a0: 55aa 0f12 9f5f a1bf 3142 39c1 a31e 91bf
000000b0: fc0a e54a 1339 4dbf 59f3 9955 2ff4 a2bf
000000c0: a688 3803 6297 923f 62a4 a5b4 c5aa 833f
000000d0: 4d0e 31d1 0b0f 9ebf 1ae7 dcc7 43ff 9ebf
000000e0: d79b 43c4 48b7 a23f 725b ae31 5199 92bf
000000f0: 716d 04da 52b8 80bf e70e 6819 a0f3 83bf
00000100: e022 1afc 4262 b43f 3a98 c185 e49f 83bf
00000110: b150 a13d a297 903f aec2 4951 f04b 8ebf
00000120: 6171 ec54 c78f 9c3f bbce 6366 b460 93bf
00000130: 01f7 f763 c716 35bf 9015 6909 503a 8dbf
00000140: 70eb 9ff1 2741 a9bf 9b1a d3a3 68ca b2bf
00000150: 7736 22c6 7554 783f b77d 10dd b3d8 753f
00000160: 22b9 eee7 c74a 95bf 2b10 40c9 8c31 a5bf
00000170: 1043 8704 cf70 a3bf e7cb 9e90 de99 a2bf
00000180: ef01 e07e b6cb 9a3f d7ad 5297 ee3e a7bf
00000190: 46d2 bf97 0bcf 9e3f a645 6ce2 84d4 a63f
000001a0: c5c2 172a 0248 983f e136 4e7a b75a a23f
000001b0: a054 7612 2222 8f3f 84c8 e11d dabb a8bf
000001c0: ecb1 6748 fce1 a7bf 16dd b707 2c4c a0bf
000001d0: ddfb d018 844a 773f ce22 061c ef1c a8bf
000001e0: e175 4771 39bb 933f 9fc7 0b81 4dac 61bf
000001f0: 3cac 5d30 4b16 9dbf ce27 e0a1 373a 9b3f
00000200: 811f 151f 662c 963f f90b f585 9a70 bd3f
00000210: 329b 034c 8287 9d3f 29b3 0601 6215 943f
00000220: f92f 9620 0d29 a73f 749f d0b1 c162 9ebf
00000230: b4ee 17bb e7dd 953f df10 4f67 76d1 943f
00000240: 7ffc 53e7 a7b9 853f 9cc6 14af ccaf 973f
00000250: 45f0 d1c2 9b14 503f 94fb a696 1669 88bf
00000260: a9cb cf8c 7a5a 5abf a40a 5b42 731e 87bf
00000270: 6e66 1c67 e827 983f b1df 2ee7 1d54 853f
00000280: edfa 172e be16 a83f 85ef 876c 45b8 80bf
00000290: 5bc4 aafb 9b85 863f c9cb 44be 2bc5 903f
000002a0: 3b7d dd9b c085 93bf 138f c032 4e6a 8dbf
000002b0: 834d e050 13f3 803f a38c 9761 2842 96bf
000002c0: 0873 48b2 eed8 82bf 23d9 d083 22d4 a7bf
000002d0: 0064 2002 588f 84bf 7a70 aecf 9255 86bf
000002e0: 608e 226d 6154 9b3f 9759 2bf2 496b a13f
000002f0: ccea 155e fbbd 913f 754d c78b 1649 9ebf
00000300: fd1c 89c2 6c70 4a3f 9e1a 327e 8b29 77bf
00000310: 42dc daa0 a65e c7bf fac7 2d07 3bba 83bf
00000320: 86f0 b0b1 35c7 81bf 1f8b 7b5b 6ee7 98bf
00000330: c65a b3bc d629 8d3f 3e08 0ca3 38d7 913f
00000340: 0d80 cf2b 6da8 9ebf 917a 0680 3721 943f
00000350: cf6b 8b2d 3493 7d3f 10fd 9fd1 2a9a 75bf
00000360: 3cb8 94b3 13f9 83bf 5a6f 2e5e a22f 21bf
00000370: 81b5 35e6 a66d 473f fa55 e39a 9a2a 9abf
00000380: 0862 e88b 91e5 63bf c860 82e9 2258 973f
00000390: c148 7e39 31ee 573f 67df f558 9971 84bf
000003a0: 6ad7 0a50 2cbf 66bf f65d b08a 79dd 763f
000003b0: 1175 3219 f5cf 5e3f 6d65 39b5 f039 943f
000003c0: 2ed4 df3d c029 83bf 60a9 b548 7868 67bf
000003d0: ca8f 07e3 65ef 653f 9f31 3ce3 6486 81bf
000003e0: a49f 72b7 0cb7 74bf e8e4 3a9e 552e 623f
000003f0: 06d5 9ff2 c8e9 97bf 7ecf 08cc 849b 6a3f
00000400: 30bb fd19 4b16 92bf f409 2e5c 8d03 7fbf
00000410: 57c9 b566 67c1 6f3f 4cb6 a99e d011 c23f
00000420: 2bcc 9f7f c1fd 633f 36be 168d 7ed5 813f
00000430: 4ade 97a5 5058 753f 3851 93fa dc51 9dbf
00000440: 288a 81d1 ac65 673f d7bf 191f 1e28 94bf
00000450: df73 a3a0 2f71 86bf 1706 19e9 7419 94bf
00000460: 1ac3 1f60 6e1d 87bf d30b 8878 9eda 823f
00000470: 6dc2 1a9c c20b 4b3f 0338 4c71 8d2e 52bf
00000480: 135b bf44 0270 84bf fb08 4389 4bce 63bf
00000490: 4200 4e63 6e92 93bf 786d 018b 5a72 6f3f
000004a0: fe37 d085 31fd 85bf a211 3a12 8e99 8c3f
000004b0: 640f 5559 06e6 a8bf 2a11 d310 7c0d 81bf
000004c0: f698 bcd7 ca6f 9bbf 1deb ea7a 7319 3f3f
000004d0: 8f01 18d5 8430 a4bf a6ed 0191 e89d 9fbf
000004e0: cce1 0d31 1e6c 7bbf 4552 822a 740d 783f
000004f0: 0c12 deb7 4b26 87bf b687 d650 3496 8b3f
00000500: a24e ca0d fb75 9bbf 1f99 85d0 8afd 9fbf
00000510: 6d69 81aa 5710 8b3f 969c 1740 053b 803f
00000520: a073 db35 4cb0 c8bf e264 c5c9 c5d7 923f
00000530: 344b 90d4 e19f 733f 363e 7eba 9f4a b0bf
00000540: c21d e0c4 e107 323f d283 1019 c9e2 a2bf
00000550: b049 f115 784b 623f bc14 9fcb f726 a4bf
00000560: 5e16 f744 f6a4 b2bf ac59 5a98 67a9 953f
00000570: fe03 4883 2447 80bf cfe9 6990 ee5c a83f
00000580: b043 e497 7473 63bf 2023 b26f d403 a33f
00000590: 759f d6fd 77ba 99bf a8fa 845a 4ff7 b3bf
000005a0: 8f3f 9a5e 4442 a73f c5c9 1143 7521 89bf
000005b0: fdaf ce7d 1262 a63f ef19 5304 a92d a6bf
000005c0: f5b9 9146 bb3a acbf 07be 57b4 a686 7cbf
000005d0: c5a1 2f43 d401 afbf 0a13 c543 4665 5f3f
000005e0: cec1 3d74 19cc a7bf 4629 41a3 a8b6 8abf
000005f0: 8b53 c4a7 81fd 543f 15c3 b1ee 4896 aebf
00000600: 7bd8 0d03 015d 953f 88ff 27cd 1315 99bf
00000610: 5040 37a0 4e5e a3bf c2f1 2350 e3a1 4e3f
00000620: e376 f564 a7fc 983f 9cbb 5059 0169 b7bf
00000630: ba29 d237 f2d2 743f bc77 f671 4700 65bf
00000640: f39d 1095 8c25 96bf 2e72 0972 2afb a13f
00000650: 18ce 8b6c c8d4 70bf de39 237c 9090 9b3f
00000660: 44ff 8451 c1a3 a43f f5fb 9488 b18a 97bf
00000670: ba8b 6c50 54c6 893f 2eec eb99 222a a23f
00000680: 9c29 a3cb 6801 583f 33dc 2e58 bfca 75bf
00000690: 518e b14f c499 a0bf 847b f0b8 daee 863f
000006a0: 73e6 376f 54e3 7a3f dc56 0559 599c a8bf
000006b0: 7d21 b38a 1c7e 813f 0da3 6a10 1b83 8f3f
000006c0: 4e46 5120 bfa3 9a3f e3d4 fc7a 1a19 90bf
000006d0: da1f 067a f7d8 7c3f 0315 b92d cca1 9a3f
000006e0: b885 d984 2f64 873f 78ec ee31 9df3 843f
000006f0: 3224 29de cb48 7fbf 1447 b94a 107a 9ebf
00000700: 21f3 8a2b fb64 78bf f32a 77ae 3be1 9fbf
00000710: bb99 1bf3 ff9b 923f 0446 3d04 6a64 5bbf
00000720: 0224 4c71 2071 7bbf 1f3d 1a67 8476 9fbf
00000730: 24f0 a7b4 754e c7bf a12d 6232 33ae a0bf
00000740: 52af b584 ea7e 553f 92bb 1c6b 2538 253f
00000750: 5f6b 7fef ffbf 933f 4bee ec4b f654 a5bf
00000760: e1c9 b719 bf12 48bf e3b5 df36 1800 63bf
00000770: 05e4 ee1d df15 a33f a8c4 9f5c f218 713f
00000780: f494 766f d691 92bf 3a2d eab1 17bb 8e3f
00000790: 779d 1f9f 5da8 92bf 7916 da0e 737e 913f
000007a0: 9e6b ee39 2d0b 8fbf b63b a2cc 6b31 a43f
000007b0: d454 9264 ea80 693f d2ea dd7a 9ecf ad3f
000007c0: d8d5 9b50 f468 97bf e0c5 c04a 6a4f 863f
000007d0: 2184 28af 1717 7b3f cf1b 1cfc 78e6 72bf
000007e0: c200 1b9d 2e2f 8bbf 46e9 e960 e151 993f
000007f0: 3f3f 0cbe 0b9b 96bf eca9 5430 62f9 8ebf

logratios_1d.classifier.net.initial_layer.bias f8 [2, 16]
-0.09618220259070594 -0.053692035871542726 0.04325852353434719 0.029757937789808637 -0.1147023746425529 0.036915358858310446 0.10307243262025263 -0.07659239308329181
-0.1317914690067726 -0.10147648348748615 -0.039744674725746075 -0.05779464355026526 0.07048067682637163 -0.14372254447958632 -0.08674141964013407 0.10242728290079683
-0.03714286233143304 -0.07120527279972957 0.05296056927262208 0.08197236443055861 0.04056977327258226 -0.0076702760031908184 -0.004391309766876343 0.0758225520125254
0.012947295774321702 0.05283954491655279 -0.010901601526598038 -0.03472172612951139 0.056867272686689924 -0.0709806520582162 0.02898068281162824 -0.02431496550300916
00000000: 8d96 9596 659f b8bf 6474 3fc4 857d abbf
00000010: 7bdf b42f fb25 a63f 251e 6a66 dd78 9e3f
00000020: 8401 dd83 225d bdbf e278 08e6 91e6 a23f
00000030: 4520 3977 f462 ba3f f944 6a1f 8f9b b3bf
00000040: 3b50 a3f8 8ade c0bf 6f4f e4e1 5cfa b9bf
00000050: f343 46fc 6959 a4bf 285f dd6f 4297 adbf
00000060: 3a1e f889 050b b23f e46d 1e16 8065 c2bf
00000070: fa1f 9088 af34 b6bf 90ed 46a6 ac38 ba3f
00000080: 6f96 fca5 6304 a3bf ca43 fa3d 823a b2bf
00000090: c4c4 01d2 a51d ab3f e4b0 6710 24fc b43f
000000a0: 5fe1 d2b2 8fc5 a43f 0727 5c09 de6a 7fbf
000000b0: b88c 5d3d 9ffc 71bf 176c 3155 1b69 b33f
000000c0: 68f9 609f 1c84 8a3f b748 b4ea c80d ab3f
000000d0: 4700 3f30 9453 86bf fdb3 5fcc 0bc7 a1bf
000000e0: 24d9 cd08 b51d ad3f 9521 3dbb c92b b2bf
000000f0: df17 91b3 1cad 9d3f a11f 8eb6 05e6 98bf

logratios_1d.classifier.net.blocks.0.batch_norm_layers.0.weight f8 [32]
0.971023268315672 0.9621842766364945 1.0187679618521472 1.1154441875204353 1.1186552567282844 0.9348851306145092 0.9827768540763572 0.950155455119358
1.012794386629488 0.9716239643918774 0.9408400901425801 1.0592212235986942 0.9609464268406112 0.9896351755981425 0.9625334624680075 0.974769901892877
1.128992759991071 0.9723840716680395 0.9429563300294799 0.9372188776365588 0.934588278841173 1.0026873195703792 0.890233477388988 1.144369110411746
0.9588172084650135 0.9424725350878391 0.939519875175765 1.0526902293949807 0.9468480766426315 0.9599152523365103 0.963626725499663 0.9527005173330365
00000000: 5b44 a263 9f12 ef3f 1622 1cae 36ca ee3f
00000010: 7ae1 65a2 df4c f03f f29d 1e01 dcd8 f13f
00000020: ec57 f20d 03e6 f13f 3231 b038 94ea ed3f
00000030: 4dc2 f071 e872 ef3f 0151 bb69 ac67 ee3f
00000040: 2456 02e3 6734 f03f de55 e223 8b17 ef3f
00000050: c7b2 3dad 5c1b ee3f 305e 29f4 91f2 f03f
00000060: a4a1 8fb8 12c0 ee3f a449 4563 17ab ef3f
00000070: 3062 d3f9 12cd ee3f 4029 38a6 5031 ef3f
00000080: 9f51 59b6 5a10 f23f c9e5 5e33 c51d ef3f
00000090: b00c e1c0 b22c ee3f 3192 9471 b2fd ed3f
000000a0: e820 9bad 25e8 ed3f e9b2 dadb 010b f03f
000000b0: f614 e6ea ca7c ec3f 4556 fcfb 554f f23f
000000c0: 3c60 266d a1ae ee3f 4e93 7229 bc28 ee3f
000000d0: 1c4d 3afc 8b10 ee3f 751f c1b5 d1d7 f03f
000000e0: 44bd 6e56 944c ee3f d7f0 f630 a0b7 ee3f
000000f0: eb52 f2b6 07d6 ee3f 4c7c 9acb 857c ee3f

logratios_1d.classifier.net.blocks.0.batch_norm_layers.0.bias f8 [32]
-0.0021300974316006854 -0.05691877800315617 0.02139768859353499 0.02915620992598233 0.04968242367555449 -0.022175737152462616 -0.02418989995131193 -0.011287361922858476
0.04477466770488853 -0.05095083122341097 -0.011051343296087798 0.06629673827969206 -0.009973739731569795 -0.018877987452952518 -0.019532852022670313 -0.01206661020579908
0.08809674643413078 0.0680836123331766 0.007756112085004517 -0.07641164796398994 -0.03257852506662176 0.05883551370606311 -0.05844448752362245 -0.004085043202971291
-0.05698056313072396 -0.040944641889618064 -0.05760308126964544 0.08685848959866543 0.011487126128810062 -0.04746833854473875 0.02917492908404726 -0.009733576763087507
00000000: 65e7 ca59 2373 61bf c48a 1a44 7524 adbf
00000010: 867c e092 46e9 953f 7ffb 6d20 20db 9d3f
00000020: 4abb be81 f96f a93f 2d8c 5687 3cb5 96bf
00000030: 7fd2 bcb4 3cc5 98bf aeca 8812 d41d 87bf
00000040: b8a9 f68a b4ec a63f 56fc 9d33 3a16 aabf
00000050: 38be 4430 16a2 86bf c724 beb2 d2f8 b03f
00000060: 052e baaf 1c6d 84bf 771f e64a c054 93bf
00000070: 4437 8a82 6b00 94bf e1ee a801 61b6 88bf
00000080: 878f d124 828d b63f 3752 5d78 ed6d b13f
00000090: 25be fc7b dfc4 7f3f eaee 09b9 b68f b3bf
000000a0: c415 6de7 21ae a0bf 31fb 6b3e b01f ae3f
000000b0: b543 1795 6fec adbf e225 5a6f 7abb 70bf
000000c0: 2ee9 4e6e 8e2c adbf ca84 b933 b2f6 a4bf
000000d0: f366 67ac 267e adbf 1ccb 34a4 5b3c b63f
000000e0: 71d9 62f8 8f86 873f c04b 4a23 c54d a8bf
000000f0: f9cc 1d59 08e0 9d3f 82eb f68e 32ef 83bf

logratios_1d.classifier.net.blocks.0.batch_norm_layers.0.running_mean f8 [32]
-0.6184683118567211 0.6133660693981926 0.7705057179592508 -0.34969671754650833 0.30208966020533373 0.8807557823528611 -0.07050999078093083 -0.4468060513182533
-0.3192820280264994 -1.202680273623437 -0.9591038473212137 -0.2929540552328866 1.4395439379371981 0.032863551606671565 0.7849838657747886 -0.05256811850122279
-0.0777811185613566 -0.11606249271288532 -0.5658841190783562 -0.3833104791727231 -0.12785643121404297 0.33289729271829716 -0.1148968995859998 0.02862917172638883
-0.6369150230417107 0.5857228398921712 -1.4327096288709555 0.06548723907139599 -0.4593124338903292 -0.8798593484379977 -0.7192709273622059 -0.8394251507287365
00000000: aa2e a10e 7eca e3bf 5c52 11e1 b1a0 e33f
00000010: ed82 809b fba7 e83f 125f 5857 6e61 d6bf
00000020: 93aa c2de 6f55 d33f 66fd 1ec0 262f ec3f
00000030: 1303 7258 f10c b2bf 6146 8468 7898 dcbf
00000040: 7cc2 24e3 1d6f d4bf a51c acab 2d3e f3bf
00000050: e6cb 368d fab0 eebf 3f2c 9d5d c2bf d2bf
00000060: 6e86 6939 5f08 f73f a41a c3ce 7dd3 a03f
00000070: eb7d ec7b 961e e93f 61cd 8c5b 35ea aabf
00000080: 9fa2 77a0 76e9 b3bf 147c 7e82 45b6 bdbf
00000090: cd8d 1803 b91b e2bf 28b3 10ad 2888 d8bf
000000a0: 2be4 527b 995d c0bf c8ba 4972 304e d53f
000000b0: e037 221a e269 bdbf ab0a 1b31 f750 9d3f
000000c0: 8e72 499d 9b61 e4bf 866d 3bd3 3dbe e23f
000000d0: 0da4 8aee 60ec f6bf 59f2 1d8e c5c3 b03f
000000e0: c920 8dfa 5f65 ddbf ccdf d3ca ce27 ecbf
000000f0: 1b7f bf76 4404 e7bf c03b 3a22 92dc eabf

logratios_1d.classifier.net.blocks.0.batch_norm_layers.0.running_var f8 [32]
0.08410252831871888 0.2041422067712178 0.11782030402282619 0.035355699748286624 0.04952701330265091 0.2352382672294552 0.06201474244357785 0.038187772692984026
0.024162293059729917 0.3273698208488861 0.20374642662260464 0.024992678615070898 0.6563839632914701 0.02390866113972339 0.29312524222837283 0.059855774676364784
0.049617109151598 0.03685544177360157 0.13924014911579302 0.24633055829301692 0.057329732042640164 0.06919182312890047 0.009219743201374518 0.042150070120687666
0.15691147793876326 0.1007782549537579 0.6567900196322323 0.03552133356339161 0.10506182351160415 0.3471887621933824 0.20066357157106948 0.22656556067235356
00000000: afca a348 be87 b53f 3a67 e8f2 5421 ca3f
00000010: 6933 95b0 7829 be3f d9cb 4a6c 241a a23f
00000020: 0890 cecc 9a5b a93f fd54 429c 491c ce3f
00000030: d07e 5475 65c0 af3f 029b a505 598d a33f
00000040: 189e f309 00be 983f f692 8f8c a0f3 d43f
00000050: 83ae 82e7 5c14 ca3f f727 2a45 ae97 993f
00000060: 5495 fef0 1801 e53f 6eba be16 837b 983f
00000070: 2930 4060 90c2 d23f 1a68 6c85 6aa5 ae3f
00000080: 3fa0 41ea 6967 a93f e1ca 316a b7de a23f
00000090: 0e0a 5f07 9fd2 c13f eadc ef7d c287 cf3f
000000a0: 9454 6c98 525a ad3f 173f 7d29 8eb6 b13f
000000b0: f928 38fc cce1 823f 288a 62a9 b194 a53f
000000c0: 0098 0ee1 ac15 c43f 8fa1 2c8d 9acc b93f
000000d0: bc1b d580 6c04 e53f 321e ee2b da2f a23f
000000e0: d45b 0ae8 54e5 ba3f f331 ca36 5738 d63f
000000f0: ebb9 b20a 58af c93f b86b beac 1900 cd3f

logratios_1d.classifier.net.blocks.0.batch_norm_layers.1.weight f8 [32]
1.11352387421932 1.0759177012418997 1.1753075637765966 1.1597286586710966 1.1444285837504766 1.1458357989876191 1.1527846473734689 1.0835722504182042
1.1690107367027118 1.170089675644822 1.0898063825652333 1.0913716707041816 1.183768480402867 1.1155967055034774 1.1277338802154562 1.0997051915887124
1.0190135906004836 1.0694694641561269 0.9964364872802185 1.0994470857997731 1.1399267989668915 1.0373069783221627 0.9630450122183651 0.96849343065028
1.0500486654170553 1.1507168370629712 1.1556240403304225 1.167705503192808 1.03111380343752 1.1435528107011739 1.0444110319751012 1.1246859638695064
00000000: 2965 f168 fed0 f13f e457 c07a f536 f13f
00000010: 3697 d24d 0fce f23f f49e 53a3 3f8e f23f
00000020: e70d bd58 944f f23f 40ce 33eb 5755 f23f
00000030: 8fcc 7c50 ce71 f23f 9263 26db 4f56 f13f
00000040: eaf9 2c9a 44b4 f23f 1582 a4f3 afb8 f23f
00000050: 956f 41d1 d86f f13f 1449 1724 4276 f13f
00000060: dada d537 b7f0 f23f be9a 5aee 7bd9 f13f
00000070: 74dd 61ae 320b f23f c5d6 9178 6498 f13f
00000080: 11f0 dc31 e14d f03f 79f0 4903 8c1c f13f
00000090: ec1b adc5 cee2 ef3f 9c14 d3d3 5597 f13f
000000a0: 2759 16e2 233d f23f 7be6 bc33 cf98 f03f
000000b0: b8b8 01c6 43d1 ee3f dd14 61ef e5fd ee3f
000000c0: 91cb 52d4 ffcc f03f b945 e20e 5669 f23f
000000d0: 7e0c 3ba2 6f7d f23f 4828 39f7 ebae f23f
000000e0: 3e7e 0330 717f f03f e25d 3308 fe4b f23f
000000f0: 7da2 9e57 e8b5 f03f b06f 91b5 b6fe f13f

logratios_1d.classifier.net.blocks.0.batch_norm_layers.1.bias f8 [32]
0.02135667083633034 -0.010580376771083495 0.1411251524507207 0.010749452786229026 0.01024636754214443 0.14293464529590796 0.0355308425357553 0.024642169264646442
0.05906280768506181 -0.0164877965232083 0.0028420270689566178 -0.010706965731743442 0.06298474133003037 0.04974689184231698 0.00729702128930597 -0.037631998370770366
0.03597653913376159 0.07434683546748116 -0.0001488505034882773 0.08070317497870363 0.0963033003769856 0.015197146227592277 0.008093025115408999 -0.05404474189769743
-0.03275484063224498 0.0927049078675048 0.05918573788225162 0.09735676468028298 0.011856707792810211 0.1091190220281322 -0.008048577216069365 -0.0045713621428326865
00000000: ea84 2ceb 85de 953f 8a75 b021 2aab 85bf
00000010: 319d 3595 6310 c23f e480 5521 cf03 863f
00000020: 666f f82b 0cfc 843f c971 81b5 ae4b c23f
00000030: 6b7b 613d 1931 a23f 9a69 60fc cb3b 993f
00000040: 74a5 d5f6 7a3d ae3f 5db0 664b 2de2 90bf
00000050: c6b3 18aa 2948 673f 3802 429d 88ed 85bf
00000060: fed4 289c c41f b03f 64af 14b3 6c78 a93f
00000070: f188 bb3c 7be3 7d3f 1138 9254 8044 a3bf
00000080: 186b 0156 846b a23f 3cd8 e4ea 6408 b33f
00000090: ec76 c516 9882 23bf 9a86 3799 f6a8 b43f
000000a0: 55b3 9d45 55a7 b83f c2ff 5170 ae1f 8f3f
000000b0: 0434 9271 1393 803f 9957 f19d c0ab abbf
000000c0: cf34 9a12 3ec5 a0bf 6c39 7843 82bb b73f
000000d0: 8813 30d1 974d ae3f 789f 5878 5fec b83f
000000e0: 76b2 aa61 5448 883f 127a fb66 39ef bb3f
000000f0: 54f8 60bf c57b 80bf e11c 6dae 6bb9 72bf

logratios_1d.classifier.net.blocks.0.batch_norm_layers.1.running_mean f8 [32]
-0.1105565484260162 -0.009874323283608488 -0.05081374268733097 -0.030748955681665722 -0.07010813445458397 0.1296521811116604 -0.04402092592912227 -0.13114799000478397
-0.013316882775236627 0.01601640288153398 -0.10286638857451937 -0.08255184089196511 0.08596581051503047 -0.01607942473773143 -0.03570444324469816 -0.1685351271787778
-0.08770948323488918 -0.09977911323921757 0.047088007341939964 0.05685624290568612 0.17783593695487956 -0.08429352030449815 0.09095938156879935 -0.007393563885561658
-0.0797973672220657 0.049743242848517215 0.05798949522061605 -0.018340026227110725 -0.07444456448017478 0.024955210345155698 0.034294141037055685 0.05295134643511353
00000000: 6c2f d917 6f4d bcbf 80f9 953c fd38 84bf
00000010: 8113 0f46 4204 aabf 69d7 277c a77c 9fbf
00000020: 907f aa50 9bf2 b1bf 2f65 dd52 7198 c03f
00000030: 6812 692a e989 a6bf f5da 0014 75c9 c0bf
00000040: 20d2 08c0 e145 8bbf 0b91 4d9a 9a66 903f
00000050: 2102 c99e 7355 babf a907 db10 1e22 b5bf
00000060: de76 bcf8 da01 b63f cd56 8ced 1f77 90bf
00000070: b5a0 1d50 da47 a2bf f7e2 ba1d 8f92 c5bf
00000080: 1bfc 0af2 2074 b6bf acb2 2fbc 1f8b b9bf
00000090: 8087 2257 eb1b a83f cdea b4ef 421c ad3f
000000a0: 352a a3f6 53c3 c63f d3f7 f898 4294 b5bf
000000b0: 7835 1a31 1d49 b73f 7113 6eb1 b648 7ebf
000000c0: 9b92 86aa 996d b4bf c775 7642 f277 a93f
000000d0: 33db f792 ccb0 ad3f 3fb3 6953 bac7 92bf
000000e0: 20ac ce89 cc0e b3bf e360 30d1 db8d 993f
000000f0: 67aa 656c 008f a13f eb9a 6f5a 701c ab3f

logratios_1d.classifier.net.blocks.0.batch_norm_layers.1.running_var f8 [32]
0.03508532577680436 0.009261076549035737 0.020067490096663903 0.016698992982982355 0.04695121357395433 0.012856299365350052 0.03198435315160629 0.023121154318497865
0.047488308037648155 0.04897688938456453 0.021106136590396996 0.038471265917279326 0.06672369135496566 0.03078362561912099 0.02302753448127188 0.03000117603393337
0.03487750988222077 0.023336274558978132 0.00861747953074707 0.018091809784033068 0.02313825602833619 0.01276460758399136 0.006678758845854363 0.026018438439222656
0.017497528352130295 0.03736452545541729 0.046589897979764566 0.045680761183154 0.011654035034020344 0.04315691143658759 0.013136163770632061 0.03572190534238218
00000000: 92cf 8f2d b4f6 a13f 7e1b 3ba7 78f7 823f
00000010: 2b3f b676 928c 943f 77c1 f372 8a19 913f
00000020: a983 9d4d fd09 a83f 05f9 924a 6754 8a3f
00000030: 8e2b 8acd 4060 a03f ae2a 9366 12ad 973f
00000040: f29a ed33 6350 a83f 5a41 55b4 7f13 a93f
00000050: ad47 9ad9 d89c 953f 4e9f e679 81b2 a33f
00000060: f5eb 3cc8 cd14 b13f 894e 2525 be85 9f3f
00000070: 52af 04ae 8794 973f bf0e a1d7 a0b8 9e3f
00000080: 88bf 9e08 77db a13f 6047 2ae0 76e5 973f
00000090: b16c 1186 0aa6 813f 4e39 64cd a886 923f
000000a0: 8074 b613 8eb1 973f 0cc5 f4a0 5424 8a3f
000000b0: 1d0f 22ad 2f5b 7b3f 56ff c1d8 93a4 9a3f
000000c0: ac07 2240 dfea 913f 9720 b96d 7121 a33f
000000d0: 244c 4b90 a1da a73f 9f12 adfe 7763 a73f
000000e0: 5d50 b31a 12de 873f acda 6ea6 a918 a63f
000000f0: 2e70 510e 22e7 8a3f 9186 643e 244a a23f
