tutorial_notebooks/lightning_logs/version_2/checkpoints/epoch=9-step=770.ckpt (torch, 274722 bytes, 147 tensors)

embedding_network.weight f8 [32, 100]
0	0x3fbd36db9eda0e52	0.11411831501214323
1	0x3faffed0d5b14ffc	0.06249096497109005
2	0x3fbb8ba79a98b1ed	0.10759971165015943
3	0x3f9fab5c8193ad8b	0.030927129181618034
4	0xbfa81147adf7a798	-0.047006835924391754
5	0x3f95fc6aaa57d466	0.02147070564929656
6	0xbfa1b45db79e99b5	-0.03457920900773407
7	0x3fa7355e9a430337	0.04532905228689404
8	0x3fb9aaa771da559d	0.10026022462473923
9	0x3fb8421a6a5414a4	0.09475865455540827
10	0xbfa74ff817efe9a8	-0.045531990930572974
11	0x3fbefb2bfda8ddbb	0.12102007811414854
12	0x3f93337f5aeca783	0.018751134800516944
13	0xbfae4d7803aa7878	-0.059184790084359784
14	0x3fc0758f4fc94d2b	0.12858764072243764
15	0x3f91f18ecfe62e44	0.017523032607227998
16	0x3fb5ab2d7c196995	0.08464321403281468
17	0x3f9c0d36bfbad06f	0.027394156887297457
18	0xbf76ec8b6c79408c	-0.005596680282522592
19	0xbfb46fead461f243	-0.07983272252199307
20	0xbf8d34508c252a7e	-0.014259938504115551
21	0x3fb11234008561e7	0.06668400776596393
22	0xbfabbdced7c76966	-0.054182494964794256
23	0xbf8ad636543c8d38	-0.013103889890379791
24	0x3f9024f283cdfb8f	0.015765942854610023
25	0xbfa6ded27dd9737f	-0.04466874872443948
26	0xbf834e7ff7c9c7bc	-0.009427070378681061
27	0x3faa5128e74c9690	0.05140044997669435
28	0x3fa29136b658d80a	0.03626414276043029
29	0xbf99a3bf4a605a32	-0.02503870860535979
30	0x3faee45d12fd53bf	0.06033602577978269
31	0x3fb2aa21b546aff6	0.07290850330053886
32	0xbfac086dd0c3c73b	-0.05475180791280684
33	0x3f97477be553fbcf	0.022733627197336233
34	0x3f9f0290ff0ddc07	0.03028322750784798
35	0x3fb268480f283c69	0.07190370912597789
36	0x3f964b66e9749ee5	0.021772010802265113
37	0x3f83082071332086	0.009292844252186915
38	0x3f91cb041a5d91f3	0.017376007184241215
39	0xbf90cf3e8a0f9f1b	-0.01641557424218752
40	0xbf993e122501a549	-0.02465084410542787
41	0xbf67096ac924f4f3	-0.0028121076258275034
42	0xbfb9e2a27110ef89	-0.10111441860584426
43	0x3fa95b077f13eb45	0.04952262331240446
44	0xbfaf7ce7abdf55ad	-0.06149982426692744
45	0x3f93c111c5043c94	0.01929118885987842
46	0xbfabe2870479f692	-0.05446264199870855
47	0xbfb91db34b74c84d	-0.09810944168273857
48	0xbfaa407ad140601b	-0.05127319149340811
49	0x3f129ac99b96a8f8	7.097106472167883e-05
50	0xbf9598fb8fecc482	-0.021091395053364888
51	0xbf7560745062ca7d	-0.005218939162818456
52	0x3faab82cba7fa127	0.052186391607224096
53	0x3f9bc9793c0a00d0	0.027135748185629194
54	0xbfa3cca81ed4b8a4	-0.038670781863730214
55	0x3fa55cf3cef90ee7	0.04172479535603007
56	0xbfa0b3b9c78b28f9	-0.03262119828066718
57	0xbfb73757be5e5cc2	-0.0906882133261773
58	0x3f79b4065560bb8e	0.006275200596106324
59	0xbf89686c697d6e90	-0.01240620324067912
60	0x3fb62b799fd8294a	0.08660087730837521
61	0x3fad9a86e3d3e3cc	0.057819571791646845
62	0xbfb0ef2b96d47359	-0.06614944870348206
63	0xbfb009a1d99596b7	-0.06264697610967117
64	0xbfb01eff4ffc7084	-0.06297298147950597
65	0x3f988bf66b2d1fc9	0.023971414844055326
66	0x3f9fa64b833ac339	0.030907802471747934
67	0xbfab21b7ebe1d179	-0.05299162630481908
68	0xbfa49a46104101cd	-0.040239514812586565
69	0xbfacb3bac388721c	-0.056058727616093956
70	0x3fa1e6d064d5ca32	0.03496409636399668
71	0xbfa06697a9179a64	-0.03203271807779087
72	0xbfb02f9b571dfa0b	-0.06322642208940736
73	0x3fa37b275cc65956	0.038048963618325146
74	0x3fb739aa1ac10f9b	0.09072363999535897
75	0xbfab9d4d8e844dcd	-0.053934501311370654
76	0xbfb64b9ae91ddb88	-0.08709114257167816
77	0xbfb30f62187e132c	-0.07445347879372538
78	0xbfae05e3c9a374f5	-0.05863868557364952
79	0x3f9f79663b97bae4	0.03073653925633381
80	0x3fb2f9b427ff9970	0.07412267662548344
81	0x3f83ab67b2dc484d	0.009604272981537454
82	0xbfb063cc73e2c302	-0.06402280644648431
83	0xbfb0a5b2fe87f275	-0.06502836908470917
84	0xbfb23421a23868c0	-0.07110796175439571
85	0xbfb9eaf7ec386f68	-0.10124158398724392
86	0x3f8cecc7d0791302	0.014123498010243821
87	0x3f9d998231d6bcca	0.028905901233596855
88	0xbf7f305aa5e20753	-0.007614473432228613
89	0xbfb2316b2dd8c734	-0.071066569035591
90	0x3faed1fc5fe3d349	0.06019581480533149
91	0xbf9bbafe38c18cbb	-0.02708050938998661
92	0xbfa93d1163e8fe5b	-0.04929403633695691
93	0xbf989866f73f5d08	-0.024018868294516188
94	0x3fb11670987d4e51	0.06674865458381275
95	0xbf59007c080404f6	-0.0015259944194102016
96	0xbfb4066432cf64e7	-0.0782225250290086
97	0xbfb5dd305d7b3d8b	-0.08540632517109807
98	0x3f9477e698a0d551	0.01998863512581767
99	0x3fb3c6df25bf685d	0.07725329085897799
100	0x3f913ae15ea8197f	0.016826173212416414
101	0x3fb5feddf1682683	0.08592021125527975
102	0x3fad706f7f6e4726	0.0574984400801795
103	0xbf3e0e965ad4efd8	-0.0004586331441094305
104	0x3fad899cbe3ec2e7	0.05769052336052543
105	0x3fac67f23f648a7c	0.05548054717862258
106	0x3fb0b97a3dba8f72	0.06533016211557
107	0xbf8c19d5ff746c80	-0.01372115312420008
108	0x3f683ef38b7de51a	0.0029597050415161143
109	0xbf8533f87c8f12cd	-0.010353032399402018
110	0x3fb131dbfcae43c0	0.06716704291308329
111	0xbfb63a60cbd2c092	-0.08682827926782213
112	0xbf98e6da748f064a	-0.024318135608842696
113	0xbf9c88e734fee4b5	-0.027865994081115193
114	0xbfaf88aa1f4e4c59	-0.0615895426955368
115	0x3fab61dc1884f56b	0.05348098563488687
116	0x3f76256644d99b5c	0.0054067606812172285
117	0x3fb09068766fac90	0.06470349208363957
118	0x3f85fedd47178691	0.010740021450092814
119	0x3fb14e5d31deca1f	0.06760199039016655
120	0xbf90272476f7b8be	-0.015774316559991723
121	0x3fa2e2481dd9bfb0	0.03688264240633943
122	0xbfa4543edd642a8b	-0.03970524265794947
123	0xbfb2dd8c34dcbc5d	-0.07369304934103256
124	0x3f9e2d098bf85e02	0.029468678634740904
125	0x3f93d8578b1c7dbd	0.019379966607741873
126	0x3fb1add3bf3c7403	0.06905864161349488
127	0x3f97b6505636786f	0.02315640951348324
128	0xbfaa39c239fbf817	-0.05122191388908009
129	0xbf9373b2f2fc2fc3	-0.018996044235833908
130	0x3fb57656b8c3a6ac	0.08383695612760772
131	0xbfb7a9858c7ab83c	-0.09243044547722062
132	0xbfb1fa816ba9fc21	-0.07022866133228024
133	0x3fb05df6d8e91cfa	0.06393378062886149
134	0x3fb2d3fdc52f2051	0.07354723037781354
135	0xbfaac6efb41b6098	-0.05229901383944585
136	0xbf9a5ff55895ef7d	-0.025756677181092414
137	0x3fa094f9d2316219	0.032386595638573996
138	0xbfb898bdd8fec9cb	-0.09608065173851014
139	0xbfb668073e0d7d2a	-0.08752484574278144
140	0x3f9c2f762a8d8895	0.027524801585408005
141	0xbfb2f52910144542	-0.07405335085447454
142	0xbfa0df3152e8f522	-0.032952824946258966
143	0xbfb873ea548b8e1d	-0.09551872791376366
144	0x3f8fa6a1b9d45949	0.015454543574872874
145	0xbfb42628d5f08298	-0.0787072679818358
146	0xbf50bc03a9a63b68	-0.0010213886040195356
147	0x3fa75b72cf9b3e84	0.045619571535664455
148	0xbfaca6f939e76207	-0.05596140701135615
149	0x3fa19e4d01a2b734	0.03441086430517118
150	0x3fb4d42a92c1ff49	0.08136240084604397
151	0x3f8dfd05d2b53261	0.014642758839408633
152	0xbfb74261ea4d0044	-0.09085666628107086
153	0x3fa373c0e01eb98d	0.0379925035079963
154	0xbf8f55e336578c7a	-0.015300536247144548
155	0x3faf4f52e8bae3b6	0.06115206805174671
156	0xbf813e992dbd0faa	-0.008420178135231843
157	0x3fa787c49c635f51	0.04595770272288625
158	0x3f843a71594885e7	0.009877095734796405
159	0xbfa754b25c92554b	-0.04556805973076424
160	0x3fafa64051d71389	0.06181527136826676
161	0xbfa663750d834dc2	-0.04372754850342232
162	0x3fadafe180fdc9af	0.05798248958207652
163	0xbfb37f9fa880b832	-0.07616613258207464
164	0x3f9e6dd75358ec99	0.029715885603064682
165	0x3fb381c31d8da1a7	0.07619876357569542
166	0x3f84231e6899b1c3	0.009832608763837741
167	0xbfa33e8f1b6d1786	-0.03758666238586188
168	0xbfa2f38c0a4b030d	-0.037014366394492716
169	0xbfaf774ec96be341	-0.06145712097890633
170	0xbfac96a7c4214b11	-0.05583690900006933
171	0x3fb2500eee464fbc	0.07153409306766795
172	0xbfa7ade671d17473	-0.04624862803823584
173	0xbfab9d5337e1b950	-0.053934670039654464
174	0xbfa40392a12d989a	-0.03908975808626387
175	0x3fa19d36d417df2f	0.034402573957719056
176	0xbfb9a786000f560e	-0.10021245480978555
177	0xbfb5fba3b0624604	-0.0858709626793584
178	0x3fb3ba7dcb6d91a0	0.07706438271049487
179	0xbf97da1413c833fc	-0.02329284067859659
180	0x3fb5486b002609b2	0.08313626054408621
181	0xbfb10ec6a396cd2d	-0.06663171285508858
182	0xbfac947928e92306	-0.05582026123426513
183	0x3fb473a041953adf	0.07988931275506726
184	0xbfa4e39eb37ce360	-0.040799102220666184
185	0x3f8ca2d8394d50c4	0.01398247647163265
186	0xbfa5f9e27d641064	-0.04292209416055995
187	0xbf93d6a509baed5b	-0.019373491972812
188	0x3f8acbd923b1ca76	0.013084122087297017
189	0xbfa5787e87fed1e4	-0.041934923268317964
190	0xbfb00828e8b45b7a	-0.06262450867903438
191	0x3f8b68120351dfe7	0.013382092214882802
192	0x3fa38fdf1485ec25	0.03820702672506852
193	0x3f7398ed2d9117c6	0.004784513927978245
194	0x3f7ede504c92d431	0.007536233585757877
195	0xbfb18031103ff334	-0.06836229941104649
196	0x3fb4597aabc208e4	0.07949034398373872
197	0xbf83ce8267e3ade0	-0.00967122916741564
198	0xbfa47c2e30047f55	-0.04000992141868546
199	0xbfa190ff5f5aa89c	-0.03430936850539121
200	0x3f645e6bc0650944	0.0024864296457575447
201	0x3fb417952cbb9cc1	0.07848484365568976
202	0x3fac77550ffc8452	0.05559793300768291
203	0x3faa5151faf8a316	0.05140167416204215
204	0xbf9fe0b1443cf92e	-0.03113057116501599
205	0x3fa210b89f89898b	0.03528382251240022
206	0xbfa3a5b40c5bfe19	-0.038373590954503274
207	0xbfb1d338077652c5	-0.06962919408972386
208	0x3fb3649d55b5b47a	0.07575400679134417
209	0xbf632dbe466aa041	-0.0023411480245450205
210	0xbfa4ec443be9caed	-0.04086507064211795
211	0x3f9eaadbfa6483dd	0.029948651464227417
212	0xbfb5f61ad603cac0	-0.0857865116593457
213	0xbf8f7e90fd0dfb8b	-0.015378124926199074
214	0x3fb483f725825574	0.08013863244771874
215	0x3f8bc26c89fa2ed7	0.013554428063137376
216	0x3fa9acbb010a852a	0.05014595401486084
217	0x3f9850c4d1bf339f	0.023745608617719346
218	0x3fb7b6549949f385	0.09262589208988288
219	0xbf952fba67a50284	-0.020689880920374396
220	0x3fab81fa603f789c	0.0537260286798624
221	0x3fa20b379bc6c6fe	0.03524183060234341
222	0x3f9579b1a6e29927	0.020972038088666125
223	0xbfb1d1e1e2261d10	-0.06960880061352648
224	0xbf68ef5630107349	-0.003043812118006893
225	0xbf9f865f556d9b12	-0.030786027516479804
226	0x3f90d265da6f93af	0.016427604157701555
227	0xbf8cc5823a1660a7	-0.014048592946707862
228	0xbf9e76f3e311b724	-0.029750643476680896
229	0x3fad604b38598749	0.05737528860914993
230	0x3fb40a4b13c3a393	0.07828206284069798
231	0xbf627c8f345b0da3	-0.002256660171811213
232	0x3fb2e8072ade482d	0.0738529662760647
233	0xbf94eb5cdbda54b3	-0.02042908756137214
234	0xbfb7ee9359c9f5e0	-0.09348412458526623
235	0xbfa787e230f48c2f	-0.04595858428572119
236	0xbfb673aac336aed8	-0.08770243898350871
237	0xbf8b5b302ef60143	-0.013357521470198313
238	0x3fb00a35fe837fab	0.06265580619537896
239	0x3fb37b981c2451d5	0.07610464751298392
240	0xbf98af516d087a10	-0.02410628536210352
241	0x3faf48641a038b7f	0.061099174666899174
242	0xbfb8c44011ae1a33	-0.09674454146998172
243	0xbfb23ed4e070c5f8	-0.0712712333631983
244	0xbfb0fccb01593e4e	-0.06635731490063643
245	0x3fae35d0cae3c4b3	0.059004330412684956
246	0xbf9361c689504100	-0.018927671557379178
247	0xbf921c9870ecc9ba	-0.017687208073036344
248	0x3fb702f4492ca388	0.08988882814868593
249	0x3f8e762ae1d6a195	0.014873824135819539
250	0x3fb4e734f2a2e4fb	0.08165293620813323
251	0x3f96d224726387fc	0.022286004525888345
252	0x3f939ea4ee11d671	0.019159867315883653
253	0xbfb875a1f5817422	-0.09554493182936644
254	0x3fb295217cf29b11	0.07258805561523853
255	0x3fa92a2e3269ea68	0.049149936346073286

embedding_network.bias f8 [32]
0	0xbfb3befa0096ad60	-0.077132821220109
1	0xbfc59d3cf76c78e6	-0.1688610275386459
2	0x3f94e614c2bab940	0.020408939729059883
3	0xbfb5b735e5143f83	-0.08482682078124353
4	0xbf9b6a1c7925988d	-0.026771969694344967
5	0x3fc90ac478c8bd0e	0.19564109704649763
6	0xbfb1a9f667c475e7	-0.06899967225441338
7	0xbfbf7702b60f545c	-0.12290970749684632
8	0xbfbc85339d5169d9	-0.11140749541065222
9	0x3f8170efc83a9e3b	0.008516190813067861
10	0x3faeb8a3addbb34d	0.06000243661205804
11	0x3fd0085131e63a5b	0.2505076396272778
12	0xbfbdfa64ed7a1649	-0.11710196302200261
13	0x3fb0b8ed95e0130c	0.06532177838387215
14	0xbf96ec60953c906e	-0.022386082752874285
15	0xbf79e4131e122b7b	-0.006321024587246589
16	0x3f9e583c8540cfe3	0.029633470185402088
17	0x3fb4ee3ce3dfe5b5	0.08176022113175103
18	0xbfac5005421bc73e	-0.05529800827015528
19	0xbfc0246b7b2dec20	-0.12611144556635256
20	0x3fcfcafc9c0a70a6	0.24838216418436793
21	0xbfb18261734c36ef	-0.068395701073509
22	0xbfc387b27f594e91	-0.15257865160184683
23	0xbfabecb30288f074	-0.05454024702018581
24	0x3fce7db1fcc41cdb	0.23821091501324684
25	0xbfbe332d7c655167	-0.11796840941435037
26	0x3fa017dd3a8efbed	0.03143206920457673
27	0x3f8c1737e6d87328	0.01371616051897602
28	0x3f7071de59c89eb3	0.004014843518724542
29	0x3fb6ad4d08eddc11	0.08858186214443743
30	0xbfb248499b4b7f1d	-0.07141552010898207
31	0xbfb5dbcc4d13f82f	-0.08538510209834337

logratios_1d.ptrans.online_z_score._mean f8 [2]
0	0x4013efda3d4a00c5	4.984230954782281
1	0x3f9c0ab434edc61d	0.02738458226253303

logratios_1d.ptrans.online_z_score._M2 f8 [2]
0	0x4128e8177a2590d4	816139.7385678538
1	0x4128fe6fd58c4ab5	818999.9170859667

logratios_1d.ptrans.online_z_score.epsilon f8 []
0	0x3ddb7cdfe0000000	1.000000013351432e-10

logratios_1d.classifier.net.initial_layer.weights f8 [2, 16, 33]
0	0x3f88e25236353aec	0.012150423316282986
1	0xbf93abb3204c57b1	-0.019209669920279008
2	0x3f72c457041bb2b1	0.004581775576053702
3	0xbf9252813d5ae60a	-0.01789285599691052
4	0xbf9f774f65213a41	-0.030728569552872512
5	0x3f7b356d82e27132	0.00664274957503279
6	0xbf9efb2bd1777648	-0.030255016956166864
7	0xbf95f476079521db	-0.021440357411195748
8	0xbf8a8c0fd37f7948	-0.012962459222703018
9	0xbf984c21dd749eb5	-0.023727921620916265
10	0xbf9173829dccfbee	-0.017042199021712827
11	0xbf80906912264152	-0.008087941042305733
12	0xbf8659bf03670896	-0.010913364688239374
13	0x3f93c83d000afece	0.019318535926457873
14	0xbf96943195c8a71a	-0.022049689070775626
15	0xbf8bf4e046a9ffa0	-0.013650657803054689
16	0x3f6322bd0f82af9b	0.0023359005536657935
17	0x3f9274d4ed40d6ce	0.018023802738943932
18	0x3f9cc6355401311e	0.02809985470985154
19	0xbf94a4498250be7c	-0.020157955721684648
20	0x3f652a1ae2b2e0e9	0.0025835538013688664
21	0xbf8006f4fb7d6d7f	-0.00782576935278345
22	0xbf6ac497e8219b33	-0.00326757115640266
23	0x3f6632327ae788bd	0.0027094827594150426
24	0x3f7a19924b5e8fb1	0.006372043097062561
25	0x3f9264707dbf797b	0.017961270976110093
26	0xbf993f045e4726d4	-0.024654453520077294
27	0xbf81a0c477f01c58	-0.00860742083570025
28	0xbf8614122cede532	-0.010780469890721098
29	0xbf8eea57198cc517	-0.015095406024189502
30	0xbf9ce67928f897ff	-0.028222935796428313
31	0xbfaac6524ef1b7ab	-0.052294323097938765
32	0x3fce70a43999ee0c	0.2378125458961765
33	0xbfa0d69cd74350c0	-0.03288736465188569
34	0x3fa6626b56e03801	0.04371962962623855
35	0xbf884e82a1183c50	-0.011868496457308947
36	0xbf82c4cae5cd0588	-0.009164414537397261
37	0x3f98faceaf80ebae	0.024394254171266
38	0xbf8b4eb091213382	-0.01333368246937439
39	0xbfa20e6a8d242f9c	-0.03526623700062645
40	0xbfa4209a345c768b	-0.03931123627829177
41	0xbfa5c75abeb4fa32	-0.04253657892194375
42	0xbfa3716a95363723	-0.0379746729987416
43	0xbf99c5d7a6b2c88c	-0.02516877131410715
44	0x3fa1393eaf29a2f3	0.033639868623884704
45	0xbfa28b4b54d53ede	-0.03621898088988272
46	0xbf779d7cd1d4ccd2	-0.005765426232119357
47	0xbfa243203dc80753	-0.03566838030020727
48	0x3f8b8ed2c8d75e70	0.01345600772303543
49	0x3f7a3573d5b5052f	0.006398632507001608
50	0xbf9410118457485b	-0.01959254617924731
51	0xbfa7d193c54ba066	-0.04652082236663162
52	0xbf900c8f0c8191b3	-0.015672907961190762
53	0xbf80625907f57db9	-0.008000083499324672
54	0xbf855f2d2b3bcfdd	-0.010435440904508592
55	0xbfa37f698cdc61cb	-0.038081453747682646
56	0xbf8d3a2bbb55f8c6	-0.014271108297858947
57	0xbf82440e69651b35	-0.008918869582556258
58	0x3f827ff33d921c7c	0.009033108059396826
59	0x3f671079e5e843c8	0.0028154736348899624
60	0x3f825d2816bfddf1	0.008966744608172457
61	0x3f8c94428247a93d	0.013954658127620529
62	0x3f961ecc7056ea59	0.021601862293872596
63	0xbf9293f82b013049	-0.018142583489222628
64	0xbf86d05afb850044	-0.011139593888060635
65	0xbfca9fe18bb5cf78	-0.2080041820696541
66	0x3f66a6b31b8e5963	0.0027650354572400933
67	0x3f91692829cabc3b	0.01700270419194914
68	0x3f9859426b48a8e4	0.023777997778020046
69	0x3f451e3ee373ef8e	0.0006444747040457042
70	0xbf9e340cfa865067	-0.02949543265420154
71	0x3f851e4a9613e45c	0.010311682419784578
72	0xbf93fb50da82136b	-0.019513381325413286
73	0xbf725416f3676b52	-0.004474725390958794
74	0x3f9fe88b19f39d74	0.031160520037614117
75	0xbf86c75b915dcf8c	-0.011122432111484469
76	0xbf768020d1da9f57	-0.005493286325567079
77	0x3f62d08c427d8b63	0.0022967090080085336
78	0x3f513eb9a562b9eb	0.0010525525045000882
79	0xbf8eb6c0c2385ab9	-0.014997011115196345
80	0x3f98020289f661fe	0.02344516722732414
81	0xbf8dc75c062aced4	-0.014540404260834285
82	0xbf59d2e0f42ab94c	-0.0015761563123920129
83	0xbf90cb83f72f7a6e	-0.016401349985125817
84	0xbf7b10bff4541551	-0.006607770749956402
85	0xbf7faffe1eb67d0c	-0.007736199051037628
86	0x3f6836a0e19b01bc	0.0029557363712628664
87	0x3f90bdf9d260adc9	0.01634970041793141
88	0xbf8aff280871e955	-0.013181984670371941
89	0xbf8ffff100b50f38	-0.015624888261875122
90	0x3f8068a0d6c27cf2	0.008012062601038459
91	0xbf863264335e55f6	-0.010838301484720408
92	0xbf930fd238088011	-0.01861504046439683
93	0xbf948ccea22ec10b	-0.020068386696665146
94	0xbf960ecac2e7301a	-0.021540802141132166
95	0x3f6e7c2a08e88b4a	0.003721315478530417
96	0x3f816192b8852db5	0.008486887222395415
97	0xbf894b87ce6b1f73	-0.012351094233409054
98	0xbfc7550f61436544	-0.18228332757170496
99	0xbf9066fcbbf4956b	-0.016017865154159077
100	0xbf9fb97f9d16cca3	-0.030981058085398982
101	0x3f75d32f54c949a0	0.005328354728208501
102	0x3f5cc8c90d520c46	0.001756855335117506
103	0xbf9617c442414e90	-0.021575037521258056
104	0x3f850d14111b7eaf	0.010278851291729422
105	0x3f95b924acf1508d	0.02121407800252988
106	0xbfb304496e1c3156	-0.07428416193233053
107	0xbfb2e0b2696392c6	-0.07374110291454902
108	0xbf8b0515166f0831	-0.013193287608263745
109	0xbfa265805bd9c333	-0.03593064423774308
110	0x3f94977fee825b3f	0.02010917561764391
111	0xbfa37d2157f0ad34	-0.03806404303062508
112	0xbf987f65c5452fd2	-0.02392348305265541
113	0xbf9646737d400a31	-0.021753124732649624
114	0xbfa762e7c8255423	-0.04567646330057353
115	0xbfb0e63b6106bab3	-0.06601306074910944
116	0xbfa53eec8f6e3930	-0.04149569750653581
117	0x3f9ddae039ccf75e	0.02915525772845428
118	0xbfb1899baf4f833a	-0.06850598363918162
119	0x3fa03e34931dc348	0.03172458930828853
120	0xbfb59d6582bdca86	-0.0844329303925325
121	0xbfb389b960133a17	-0.07632025333007451
122	0xbf962e1af72ce1d3	-0.02166025289190705
123	0x3f988b5bc260fbc2	0.02396911023992821
124	0xbfa55604a300adc7	-0.0416718911149832
125	0xbfa2bd8e416b715e	-0.03660244511204057
126	0xbf91190ea831d300	-0.016697148338113088
127	0xbfb5bbc2a302256a	-0.08489624480912075
128	0x3f98f12912ec6062	0.024357454090108262
129	0xbfbb4ecdcf05df06	-0.106671202700337
130	0xbf9e19e27e1586a3	-0.02939561743313014
131	0x3fbe262dc543d22d	0.11777006212270953
132	0xbfae0260943a5149	-0.05861188706799909
133	0xbf97c931c9c52d2c	-0.023228433551861702
134	0xbf98a1300c23b8f1	-0.0240523822221172
135	0x3fa5cbf4790f5bc2	0.042571677949744494
136	0xbfb71f0b57d7bad7	-0.09031744856450118
137	0x3fa399fca21be3bf	0.03828420142048782
138	0x3f9a5a996ff56d37	0.025736234148422823
139	0xbfa0bb2a18d92272	-0.03267795136759312
140	0xbfa643e559ece142	-0.04348675463410469
141	0xbf98727e9c3369b7	-0.02387426212667673
142	0xbf9658cf0bddaa7b	-0.021823153590427396
143	0x3f9dc4343a1653a4	0.02906877140556542
144	0xbf9443633b887c41	-0.01978831339704024
145	0x3f98e6a771416e4c	0.024317375457356058
146	0xbfacfa8fe26ebbe1	-0.05659913672513262
147	0xbf62d34a10837092	-0.002298016221272966
148	0xbfb15607b3384ecd	-0.0677189648197853
149	0xbf9a11f86f0586f5	-0.025459176803798795
150	0x3f90b62da5b7e71e	0.01631995510067618
151	0x3f619d8b7b456431	0.0021503185509286417
152	0xbf755de4b43dda81	-0.005216496825474538
153	0xbfadf545fe5eef13	-0.05851191263306368
154	0xbfa8864587013741	-0.047899410944053596
155	0xbfab3e3075606496	-0.053208841636839185
156	0x3f5007411733befc	0.0009782920504299289
157	0xbfb2d4d9a9c11bab	-0.07356033701317581
158	0xbfa5ce3ae1b3b921	-0.04258903508331203
159	0xbf84b6e0860e73ce	-0.01011443528278191
160	0xbfa07dedb9a3ac1b	-0.03221075907807621
161	0x3f96942f20222655	0.02204965242029851
162	0x3f811091602c0ad3	0.008332381961286306
163	0xbfbb30939911ecc2	-0.106209969397173
164	0xbfbb92c0774c002d	-0.10770800507089069
165	0xbf9c1fea74f20441	-0.02746549929407061
166	0xbf60e89a898422b6	-0.002064039068617819
167	0x3f791f7d727de828	0.006133546856171214
168	0x3f9ac4bb64c791ac	0.026141098047348585
169	0x3fa462c22a759d80	0.039815967257534446
170	0xbf5efb688586c57a	-0.0018909950941686502
171	0xbf7465cbaad4426e	-0.004979892325778763
172	0x3fa6fc417161056e	0.044893307771881705
173	0x3faa717c5860bb46	0.051647077358544055
174	0xbf5cc7385719ed28	-0.0017564821431779818
175	0xbf8ad82f481462ce	-0.013107652079768963
176	0x3f9050ca029a941c	0.015933185967373573
177	0x3fa0b31cf3b7dc5b	0.032616524458654005
178	0x3f95ffda328ef6be	0.021483811698763892
179	0x3f6f747ef922fcd6	0.00383972930384822
180	0x3f7685d6da3c85f5	0.0054987328219637715
181	0x3fa4adc871f3a549	0.04038835898411237
182	0x3fa3eb21dafdf11a	0.038903291685502064
183	0x3f5bb4a389dfb0d7	0.0016910168701498773
184	0x3f9adbd95087ef69	0.026229281940671898
185	0x3f7250c02854278a	0.0044715410379100404
186	0xbf952ec287de815b	-0.020686187308116426
187	0xbf71cf23a2d06711	-0.004347933962913123
188	0x3f7e2a54a2b53098	0.007364588363383849
189	0xbfa06e7fe2442a2b	-0.032093044634241195
190	0x3fa711858b9d3920	0.045055554669135356
191	0xbf7c442c73ed9c1a	-0.00690095295326556
192	0x3fa0740b6806f939	0.03213534970153593
193	0xbf940c55faa9c010	-0.019578307556400942
194	0xbf9039922d078c9f	-0.01584461593473618
195	0x3fa12d8f64ae6633	0.033550721206847454
196	0xbfa1fda509a7a4c0	-0.03513828032357358
197	0xbfc52cbca7a9df65	-0.16542776285836705
198	0xbfa51f58e31c740a	-0.041254785274055975
199	0x3f9016ca2640e84a	0.01571193560105425
200	0xbf85efaf4204949b	-0.0107110683462202
201	0x3f7190dba9829dcd	0.00428853803183622
202	0xbf9ff4c763d83bb0	-0.031207194775614233
203	0x3f92b13baf0f1ab8	0.018254215774301058
204	0x3fa7324b341f2e36	0.04530558596851757
205	0xbfa4fec170d6a699	-0.04100613119528624
206	0xbfa7d067182f4f91	-0.04651186151718812
207	0xbf854c87ff9af4ef	-0.010399878013567647
208	0xbf94b44e9cab46c0	-0.02021906691772446
209	0x3f98a1b742520660	0.024054397032620023
210	0xbf9cc731951c4d91	-0.028103613592134705
211	0xbf9503baecfeca64	-0.02052204200271958
212	0xbfa6017f18941570	-0.0429801671507829
213	0x3f48989b966d4e01	0.0007506141381363186
214	0xbf9906bb37f957f8	-0.024439740458852527
215	0xbf9425a785cd7750	-0.019674890081083973
216	0x3f32ff43aae2b53b	0.0002898731426153771
217	0x3f9011482de3a223	0.015690925408224154
218	0x3f93c34dd669048b	0.019299713336526508
219	0x3f808a9260ed89bd	0.008076804717067948
220	0x3f6543888339303b	0.0025956789266157443
221	0xbf80dfbab1dbd507	-0.008239229729478227
222	0xbf49086c1ff3338e	-0.0007639434769771568
223	0x3f82dcd4883f93f9	0.009210262687654224
224	0xbf9a6605a938d6e1	-0.02577980847691819
225	0x3f97eefbc8e2ad53	0.023372587333750982
226	0xbf9df292495cccf6	-0.02924564907807522
227	0xbf8eea28229a6c92	-0.015095056110388225
228	0xbf8e24db4140d7c0	-0.014718735627052726
229	0xbfa2fc25c01c603d	-0.037079982472449015
230	0xbfc3b3382316f15c	-0.15390683854446763
231	0x3f80b5d0bb7bdef0	0.008159285279802003
232	0xbf8dcfe10a7a5824	-0.014556654102573736
233	0xbf97fd6a2b61b13c	-0.023427637956431754
234	0x3f8486740c9bbd36	0.01002207435109757
235	0xbf77d30c825de0c6	-0.005816506256330628
236	0x3f8e422beed3f600	0.01477464983554011
237	0x3f9b81f43cda780e	0.02686292287273067
238	0x3f815bd8f279aee3	0.008475966357955616
239	0x3f9105b68a2815d3	0.016623356039436942
240	0xbf6c4642d279fb9b	-0.0034514718170721276
241	0xbf9742ad261d5281	-0.022715287638976015
242	0xbf7bd10d2b6d0a30	-0.006791163867833336
243	0xbf8669d30f211b52	-0.010944031619272519
244	0xbf6629d0c62aa172	-0.0027054860705286116
245	0xbf7b1666260c6b78	-0.006613158243250143
246	0x3f86bf151f27d5db	0.011106648457807225
247	0xbf7242bf0cc00705	-0.0044581854708682965
248	0x3f844015fd65b855	0.009887859149525871
249	0xbf59f039700995ec	-0.0015831528582109745
250	0x3f952cb81442b3e4	0.020678402172666824
251	0x3f774db2f0785a6a	0.0056893338983373485
252	0xbf7b1544e861f0f0	-0.00661208073699647
253	0xbf57e693c4a72166	-0.0014587824867807408
254	0x3f7550ede2414509	0.005204133256556228
255	0x3f824b4e63f85f53	0.008932697702263381

logratios_1d.classifier.net.initial_layer.bias f8 [2, 16]
0	0x3f4024f2a7415705	0.000492685778690855
1	0xbfa36443a4474285	-0.03787433033324298
2	0xbf95f343d539c7d6	-0.021435794724716427
3	0x3f986b517deb81d8	0.02384688693098433
4	0xbf7f5139bcbadf47	-0.007645822082558435
5	0xbf98528534df2f61	-0.02375229010776481
6	0x3fa508d785256572	0.04108308315580701
7	0xbf99c812b5201457	-0.025177280716907138
8	0xbfa51c960651b237	-0.041233719130876194
9	0xbf729e0cc0edaeb5	-0.004545259302954176
10	0x3fa38e77a86df0cd	0.03819631510757091
11	0xbf9a11eada8d50fd	-0.025458974446636685
12	0xbfa2ed78c372f827	-0.036968015535862535
13	0xbf92c6105d9a4880	-0.018333678925565255
14	0xbf7f02c550e3bfd0	-0.007571001782920875
15	0x3f8e4b52274c3432	0.014792100738782652
16	0x3fb29093b4016381	0.07251856941856084
17	0xbf9404e7c0bc815a	-0.019549962176030312
18	0x3fb5fb94645d4711	0.08587005091001411
19	0xbfb79f09671378d1	-0.0922704579020064
20	0xbfb2aecf0c2b4ff1	-0.07297987029170351
21	0xbfb44b82830665d0	-0.0792771882901413
22	0x3fb796ef186a64af	0.0921468195541759
23	0xbfa2086cdccb6cce	-0.03522052951094566
24	0xbfa4138f293af6f9	-0.03921172502803744
25	0x3fb704dfc52378d5	0.08991812289193331
26	0xbfb414a805c175c6	-0.07844019070167638
27	0x3fb362f7c813b861	0.0757288802594487
28	0x3fac46b2e6cab96a	0.055226889298284856
29	0x3f9cd02db3f5261e	0.028137888058415432
30	0xbfb103cc89b87c85	-0.06646421778030927
31	0x3fb8f377eb873960	0.09746503353310265

logratios_1d.classifier.net.blocks.0.batch_norm_layers.0.weight f8 [32]
0	0x3ff0ae6823fbc069	1.0425797849275347
1	0x3fef6514f12e461c	0.9810890875398317
2	0x3ff12ba4864eac9c	1.0731549497966517
3	0x3feda0b4c25a5e0f	0.925867442699145
4	0x3fed47144c82eb8e	0.9149266714442648
5	0x3fec859f5ba2f2de	0.8913113393569707
6	0x3ff05887a5983322	1.0216137379204118
7	0x3feee63c07a0a16e	0.9656047963117496
8	0x3fee8ae449f9fea6	0.9544545597891172
9	0x3ff02c7750f74346	1.0108559763650233
10	0x3ff07fcc0eba7342	1.031200463802819
11	0x3feeb735d9ac21ae	0.9598645450033041
12	0x3fecc00fbcfbfceb	0.8984450045681148
13	0x3feeb2eb35a5217d	0.9593406722788554
14	0x3ff0f7cee956f74f	1.0605000605423418
15	0x3ff02b60808580d6	1.0105900783892614
16	0x3fef7203c065e28f	0.9826678045056542
17	0x3ff299c54c023a0d	1.1625416726197983
18	0x3fed8354a1d75195	0.9222815667113077
19	0x3fed1a5da3c8bd34	0.9094684790524412
20	0x3fedddd313e20649	0.9333281887376838
21	0x3fef24ccd15abf36	0.9732421959833804
22	0x3fed374af06018a4	0.9129996008712351
23	0x3ff0b8449220fe63	1.0449872692260207
24	0x3feed6d50544385b	0.9637246229992898
25	0x3ff398aacd86d8a5	1.2247722652805717
26	0x3fee657e8211ed18	0.9498894253187329
27	0x3fee0aa1fc9dbb77	0.9387979444417017
28	0x3fef457846cd96cf	0.9772302039025024
29	0x3feb4481a0767fc8	0.8521125921288268
30	0x3feee8c0a90f5d50	0.9659121801331967
31	0x3fee13f34adf3f7d	0.9399353468270274

logratios_1d.classifier.net.blocks.0.batch_norm_layers.0.bias f8 [32]
0	0x3faa737da6c13b49	0.051662375074207185
1	0x3fb4f19f37453509	0.08181185817121074
2	0x3fcdf8bbaae7a42c	0.2341532310959179
3	0xbf83f9dc3a6d226b	-0.009753914387730952
4	0xbfa6a4ecc0c07824	-0.04422702649047519
5	0xbfaa4f4bb5b773df	-0.05138622849674567
6	0x3f97fd5d1792a5ca	0.02342744308831416
7	0x3fc4fc50d04b02ce	0.16395006342465596
8	0xbf91300e34b6700f	-0.01678487965328662
9	0x3f793a9f2fcc910a	0.006159421752077296
10	0x3faf872bc25228a1	0.06157814738351531
11	0xbf82e9df20afeb74	-0.00923513716224076
12	0xbfb26136d94d9c15	-0.07179587178471565
13	0xbf9932ba90aee67f	-0.02460757740093422
14	0x3fc83f51e1eb3d5d	0.18943236857601678
15	0x3f855cd378066734	0.010430957889912308
16	0x3fa399d300e40b5a	0.038282960757007614
17	0xbf91e83ed617490d	-0.01748750859935293
18	0xbf8dc9bf9b00b24f	-0.01454496089726223
19	0xbfa60c5359bf8927	-0.0430627867751972
20	0xbf9b527b83220028	-0.026681833151542517
21	0xbfa181a1ff5908c4	-0.03419214479483082
22	0xbf94d7fdc167b5ac	-0.02035519116355082
23	0x3fb1017f4fdfe9ab	0.0664290971762173
24	0x3f7d95fa5359e995	0.007223108133639041
25	0x3f8af98856e02177	0.013171258116941626
26	0xbfa06b72aff6198d	-0.0320697631641905
27	0xbfaad91938d4edfc	-0.05243758028742815
28	0x3f8e963d474bdeb4	0.014934996355335663
29	0xbfa3ce8352a21be6	-0.038684943997445306
30	0xbf8e0da380be8abb	-0.014674451223816267
31	0xbfa842983bfe04ef	-0.04738307697608401

logratios_1d.classifier.net.blocks.0.batch_norm_layers.0.running_mean f8 [32]
0	0x3f74527f84dd9234	0.0049614888392608865
1	0xbf77132ed20ea2ec	-0.00563352860709963
2	0x3fd2f2041f482db0	0.29602149062039995
3	0x3ff2287a6b82d215	1.1348823737763543
4	0x3ff0ae14e6f87906	1.0425004026688511
5	0xbfc5703000b27154	-0.1674861911204838
6	0x3fe77186f9d19b41	0.7326083068154291
7	0x3fd0afaaf9f1ef7e	0.2607219162816746
8	0x3fe8acedfa6ffee3	0.7711095706326571
9	0x3fe5245b22aea30a	0.660687988031982
10	0xbfe0a9fd720fe236	-0.5207507350706411
11	0x3ff2776048e79449	1.154144558700198
12	0x3fd808684022044c	0.3755131365106237
13	0xbfc1ea8c98d323f8	-0.13997037374636512
14	0xbfd607281e55c9d4	-0.34418681108868765
15	0xbfead329435d2fc9	-0.8382765117362335
16	0x3fc7055d8abefaac	0.1798512389632
17	0xbf7193324e4365e4	-0.004290768152907163
18	0xbff5f93e5ed1f7dc	-1.3733504966653447
19	0xbff5070d3526d8a4	-1.3142215801467865
20	0x3fc6364f66f2aa7a	0.17353241469148256
21	0xbfebcfa7d9feca6c	-0.8690985925407637
22	0x3fd5050af1d6c883	0.3284327851971584
23	0xbf9200bacf14fee2	-0.01758090866974172
24	0xbfcf1f99d50c8236	-0.24315188315178354
25	0x3fb3da92cb550148	0.07755391563569447
26	0xbff663cc7fc251c5	-1.3993649473751344
27	0x3fe0cb495dfb039f	0.524815257602416
28	0x3fe302ebe1fb1a80	0.5941066182793548
29	0x3fe53abc03af54d3	0.6634197303743811
30	0xbfd8c99f391ba780	-0.38730602814631965
31	0xbff8e82f101d0151	-1.5566855077195962

logratios_1d.classifier.net.blocks.0.batch_norm_layers.0.running_var f8 [32]
0	0x3faecc401b0fdb99	0.060152056983432796
1	0x3fa8432e45834289	0.04738754843277088
2	0x3fa0c89723c0a103	0.03278038321906431
3	0x3fe33ea019892e00	0.6013947008845548
4	0x3fd769d75d99bd95	0.36583503857306116
5	0x3fb141508cc0b95b	0.06740287243221614
6	0x3fbe143307f407c2	0.11749571746989232
7	0x3f9b22f3610bfef9	0.026500513838072035
8	0x3fd4f3989f2b8bae	0.32736793083148086
9	0x3fbac2a648aa25f1	0.10453261636771295
10	0x3fb6293e222e07cd	0.08656681379764493
11	0x3fdc674806925de6	0.44380379335186004
12	0x3fb3e8d9f3d9f70b	0.07777178004650069
13	0x3fb5396275f69c1a	0.08290686969722608
14	0x3fa1650816200073	0.033973934841925145
15	0x3fc9fcca0ad19023	0.20302701500179507
16	0x3fadcd6ae88c5c51	0.058207836997262626
17	0x3faf3ed9108b5bdc	0.061026366490913836
18	0x3fe7033ec983baaf	0.7191461501914399
19	0x3fdcc0e717bed23c	0.44927384680639526
20	0x3faa4df0c70294d1	0.051375889104102186
21	0x3fd2deb4c5a68491	0.29484290410807384
22	0x3fa9b82f69b19cd7	0.0502333466072799
23	0x3fa5949b305cadd8	0.042149400380676105
24	0x3fa4f6206f3c6ac4	0.040940297678579124
25	0x3fa38be070ab5d10	0.03817654967650175
26	0x3fe24844b24b573e	0.5713218195257708
27	0x3fb18b20bf1d4a9b	0.06852917352561365
28	0x3fc57653ec4053e1	0.16767357860285784
29	0x3fd68539c6f623e6	0.3518814509375815
30	0x3fb0f576c51dedfa	0.0662454825632536
31	0x3fed84be5a01a860	0.9224540479601835

logratios_1d.classifier.net.blocks.0.batch_norm_layers.1.weight f8 [32]
0	0x3ff22bd09ad777c8	1.135696987962989
1	0x3ff007b6bfe5ee2b	1.0018832679769598
2	0x3feed3095e1fbecb	0.9632613027915452
3	0x3fef59cb875ebffa	0.9797113079021067
4	0x3fefcdc6d01cd539	0.9938692154598022
5	0x3ff308f7e257c10b	1.1896895257487496
6	0x3ff04b310bbf5147	1.018357320678733
7	0x3ff2625b6da8918f	1.1490129741224313
8	0x3ff273c27c3c402f	1.1532616475051432
9	0x3ff3a3365211f1c8	1.2273467260230166
10	0x3ff2c0fd22a9178d	1.1721164087225333
11	0x3ff09db356b75589	1.038501108870465
12	0x3ff32196db4e17fa	1.1957005087474486
13	0x3ff2d2584e866dce	1.1763537471186853
14	0x3ff2c8b6139fd917	1.1740017668321963
15	0x3fef1e816c599395	0.9724738231858391
16	0x3ff3b3dbd2dd658a	1.2314108120830007
17	0x3feefff8b030c09a	0.9687465134830007
18	0x3ff0752046103f7a	1.0285952317098848
19	0x3ff096e5d19cc1ee	1.0368402660352518
20	0x3ff0bb014b5811f9	1.045655531227679
21	0x3ff144da1698bc16	1.0793095476799457
22	0x3ff25ba14cd9c439	1.1473706247309237
23	0x3ff382e358bd71da	1.2194550959021542
24	0x3ff30d50376a54c2	1.1907503285085999
25	0x3ff3ab767e0120b8	1.2293610498473253
26	0x3ff3773d74d69fd2	1.21661134376517
27	0x3ff056a8df5f00aa	1.0211571431573625
28	0x3ff0a24586cc3258	1.0396170869381844
29	0x3ff0ae2c03b0db2f	1.042522444169389
30	0x3ff35bca91b65279	1.209909981907144
31	0x3ff040d3c8e4e725	1.0158269736697971

logratios_1d.classifier.net.blocks.0.batch_norm_layers.1.bias f8 [32]
0	0x3f7d254d7a9c7c9c	0.007115652706288913
1	0xbf9a8b5fe4ee3f96	-0.02592229685575339
2	0xbfa9a27c2b7a908a	-0.05006778746363334
3	0x3f898954c75f23f9	0.01246896966394394
4	0xbfa38baaa0e241aa	-0.038174945963990695
5	0xbf97528b766bc0d7	-0.022775820830191442
6	0x3f7c31ce5a937560	0.006883436269359805
7	0x3fa0ea40c354895d	0.03303720840837585
8	0x3fa6f42e303afcee	0.04483169878721492
9	0x3fb13ec13f2f9be2	0.06736381332994726
10	0x3fa6301fb912ccbc	0.04333590635487769
11	0x3f96ded705830522	0.022334441863454242
12	0x3fa27c5b02185a2a	0.036105007177117024
13	0x3faa32b16ca8403b	0.05116800738699153
14	0x3fa42b45541c5b54	0.03939263011687069
15	0xbfa63b25fb021c68	-0.04342001618447783
16	0x3fa1f7f4382f37d2	0.03509486375661165
17	0xbfb1f92c8f3ff3f9	-0.07020834443387959
18	0xbfb612eec8016310	-0.08622639067597171
19	0xbfb615091bf9fb21	-0.08625847752589923
20	0xbfa8fd5b6da4edf1	-0.048807961592014844
21	0x3f84915dbb18181b	0.010042888900908811
22	0x3fb469a23035eca7	0.07973684002893099
23	0x3fba9ba929462c2a	0.10393769509953246
24	0x3fc31ca06fc2ba86	0.1493111177164403
25	0x3fa5ef9b903ce215	0.04284368644443163
26	0x3fad0155a6f6cfd1	0.05665080702911463
27	0xbf8f25868b91db54	-0.015208293089228477
28	0xbfaa6c9a86f5a825	-0.051609829878387616
29	0xbfa4756faaa6fae1	-0.039958467084479705
30	0x3f9d0304326a078a	0.028331819130933
31	0xbfa54eb7a149227f	-0.041616190374559096

logratios_1d.classifier.net.blocks.0.batch_norm_layers.1.running_mean f8 [32]
0	0xbf83bc20db9c8ab2	-0.009636170103083461
1	0xbfc57e18be29e140	-0.16791066441852287
2	0xbfa9f63428244e6c	-0.05070651044857474
3	0xbfc0e7e57dedf56a	-0.1320769181146873
4	0xbfc07d7bb6713b6b	-0.12882944496456203
5	0x3fa57dbc21f7f9a2	0.04197490610748679
6	0xbfc40b6da449bf37	-0.15659876367453204
7	0xbf835648bf330521	-0.009441917738856777
8	0xbf926ad45f2309b9	-0.017985647494023847
9	0xbf92883edae0ea17	-0.018097860440528715
10	0x3f9cbb2f2e4cf3d8	0.028057801438297364
11	0xbfb114d6b0440cfa	-0.06672422221531696
12	0x3f9e960256afdb1f	0.029869114438009988
13	0x3fb80e6da24469e6	0.09397015773394166
14	0xbf9c42787d4e687e	-0.02759731545266008
15	0xbfc2e37a4438a98a	-0.1475670655357358
16	0x3fb414b0c9505596	0.07844071307075348
17	0xbfbc030532f74594	-0.10942108625683594
18	0xbfbe4b451b42b629	-0.1183360282472782
19	0xbfb6312e1b11bbf8	-0.08668792878027876
20	0xbfb928875b2f2fe9	-0.09827466942004971
21	0x3faa5bdaa1a51f99	0.05148204062658052
22	0xbf906adab681eb7d	-0.016032616986631155
23	0x3f89f33e80827832	0.012670982643893412
24	0x3fa18f9b72d1cfcb	0.03429876114469684
25	0x3fadd9bb0c7d435c	0.058301778101514684
26	0x3f8a10b183a90363	0.012727152662707025
27	0xbfc3c2866d6ebc72	-0.15437393515955794
28	0xbfaf7caa6ac603b2	-0.06149799874675156
29	0xbfaaf202ef91d810	-0.05262765097079136
30	0x3fa9cd4b53c0e2ea	0.05039439580327161
31	0xbfc298d91b241533	-0.14528955292932152

logratios_1d.classifier.net.blocks.0.batch_norm_layers.1.running_var f8 [32]
0	0x3fb0d5b944930b95	0.06576116489581658
1	0x3f9a2e3770e308c8	0.025566927208964058
2	0x3f848880ec816087	0.010025984971591363
3	0x3f91298ae72bed63	0.016760034904092957
4	0x3f8c3b8210ca7c4c	0.013785377633494765
5	0x3fb0125cbd7ee295	0.0627801859508373
6	0x3f95dd1ad909d111	0.021351260659188635
7	0x3fb0f1a68a8308e1	0.06618729478489939
8	0x3fabae9bb639669e	0.05406653022209905
9	0x3fb1f6a294bae330	0.07016960269073702
10	0x3fb529cbf2bb455e	0.08266901660978962
11	0x3fa233e9857fb172	0.035552308603516006
12	0x3fada6b631d8a6a0	0.05791253431773424
13	0x3fb4f7050009fb6d	0.08189421893074007
14	0x3fb2cc0445c12414	0.07342554762830417
15	0x3f9c69f39d96dcc1	0.027747923367965614
16	0x3fb22faa6ee282b1	0.07103982169293023
17	0x3f90253c38fdd2c5	0.015767041185841508
18	0x3f9c5d4ba385a09c	0.02769964395102474
19	0x3f9bde45fcc8a76d	0.027215093187045115
20	0x3f982c9e93d4c60c	0.023607709668061402
21	0x3fa91d465c0a83ec	0.04905147431896481
22	0x3fb10f3d5bb82786	0.06663878907434481
23	0x3fa8de7043af8252	0.048572071325683766
24	0x3fa0cbe30fb4f136	0.032805534045538584
25	0x3fa9fc6ad8d2240e	0.0507539167093186
26	0x3fab853327c43ef6	0.053750609020537896
27	0x3f957f0169c81516	0.020992300111193428
28	0x3f9675eb11f44967	0.021934197398033286
29	0x3f91ce350303fd6e	0.01738818007379222
30	0x3fa95986561bf151	0.04951114464890572
31	0x3fa2f6c14d9a49eb	0.0370388419370505

logratios_1d.classifier.net.blocks.0.linear_layers.0.weights f8 [2, 16, 16]
0	0xbfb4895c88e805ca	-0.08022096960487271
1	0x3f9fe5205fab074b	0.03114748557960149
2	0x3fc0d08578f0caca	0.1313635674028631
3	0x3f8557c53a8f9328	0.010421315049777016
4	0xbf7783d8764f02bd	-0.005740972094770922
5	0x3fa886857a779836	0.04790131683311964
6	0x3f9f04cc83f06306	0.030291743805807257
7	0x3fa2a6b20817fd0a	0.03642803524780376
8	0xbf91e76b5f1ef935	-0.017484357529377454
9	0x3fb5250c236009b6	0.08259654868746832
10	0xbfb10ec0a2700d8e	-0.06663135495914771
11	0xbf810025ea2c2921	-0.008301063736798899
12	0x3f51b1c9f4d7ad0a	0.0010799858313202426
13	0xbf71fe3c3d5f694e	-0.004392848311875431
14	0xbfb533dda916fff6	-0.08282266023797988
15	0xbfa29a95de317a39	-0.03633564317054944
16	0xbf78a0b130a94dfb	-0.006012622975123612
17	0xbfa51ab05e6093da	-0.04121924545351137
18	0xbfb6a74b63120448	-0.08849021118841549
19	0x3fb21d09abf08195	0.07075558135739464
20	0x3f8fb56e6f1bc455	0.015482771650086638
21	0xbf9b144295688401	-0.026444473618656875
22	0xbfa3f89ec21b49c8	-0.03900619620766893
23	0xbfb8d60565709baf	-0.09701570250091039
24	0x3f9d6893b3021718	0.028719241905967058
25	0xbfaa7c9e74273dfc	-0.05173201721083484
26	0xbfabffc6a0873a2d	-0.05468579015324724
27	0xbf9a6b87595b66e7	-0.025800814465447266
28	0xbf9706062282635a	-0.022483917099268204
29	0x3f9127b8eb39f54b	0.01675309119899752
30	0xbfaf223be9bf2e91	-0.06080805996279282
31	0x3fa383852adf566a	0.03811279438347699
32	0xbfb252af414271d4	-0.07157416671038358
33	0x3f940390785aa759	0.019544846864540364
34	0x3f968d3e653b93fd	0.022023177078967383
35	0x3fb1f71961b7b875	0.07017668376622217
36	0xbf8de9ed62370442	-0.014606337127476835
37	0xbf9a36b4680b8362	-0.02559930691757318
38	0xbfa6677991a2d106	-0.0437582006719897
39	0x3f835c8f8c2a489f	0.009453889336587471
40	0xbf4a69eca1fe6a4e	-0.0008060841973816597
41	0xbfb277afd6a25810	-0.07213877668468194
42	0xbf819c5e77c496d0	-0.00859903147700028
43	0xbf946300c0e14ff6	-0.019908916256397867
44	0x3f7e21ffc8c0ca06	0.007356642872809354
45	0x3fb58136d38cf96f	0.0840029016953616
46	0xbfa1db031c31ed87	-0.03487405509164448
47	0xbf9ffaec42812950	-0.031230632361521515
48	0x3fa1c14bb8f16e81	0.03467785484891995
49	0x3f61fc320ee7d84c	0.0021954515170774843
50	0xbfb211d63184ba20	-0.07058466633746052
51	0x3f7a556627ec28c8	0.00642909912745377
52	0x3fa121609afdf63d	0.03345777408592852
53	0x3fb0309d24453624	0.06324178824908039
54	0xbfb3d063cbde9ede	-0.07739852645192566
55	0xbf9d613e99115ade	-0.028691270916477822
56	0x3fa2d2ac652f3f19	0.0367635606304459
57	0xbfaf72e7b140dfc2	-0.061423530948047325
58	0xbfa635741fb5a676	-0.043376568671033164
59	0xbf9074d28c4f44c3	-0.01607064229375933
60	0xbf9deb17414f4484	-0.029217112885650667
61	0x3f86c78a644efe75	0.011122780977415684
62	0xbfb14695ebb4b5f8	-0.06748330120600332
63	0xbfaccf66bc844826	-0.05626984645108761
64	0xbf9568259071712d	-0.02090510076628609
65	0x3f94b83d6822ac24	0.020234069329188156
66	0x3f664b613701389d	0.0027214907386570856
67	0x3f65bdfc3be72d2a	0.002654068607829925
68	0xbf962b7be204dace	-0.021650252981283917
69	0xbf93878328935192	-0.019071626044778585
70	0xbfa378a32a26c5a3	-0.038029765029374184
71	0xbf3789c4af4f223c	-0.00035916377902059696
72	0xbfa26e010c3f5d6e	-0.0359955146265588
73	0xbf7a182e580a8920	-0.006370717078114901
74	0xbfba774e4a82198d	-0.1033829624085227
75	0x3f7c16fb18370e95	0.006857853735201443
76	0x3f80c34056db9d5b	0.008184912348453357
77	0x3fb29db26c960e43	0.07271876479176691
78	0xbfb052845dbb0621	-0.0637591103395825
79	0xbf8f60207a3e44e7	-0.0153200661950756
80	0x3fb497843be74d4c	0.08043695890892372
81	0xbfa21fa0a74ec58d	-0.03539754907923074
82	0xbfb2ff1dd1c1c6e2	-0.07420526858347956
83	0x3f8b8babd3e919d1	0.013449995426651736
84	0xbfa6ec5a25e15c2e	-0.0447719737282387
85	0xbf98c9b63b737bfd	-0.024206969622237996
86	0xbfb4728444d33931	-0.07987238579082569
87	0xbf94c9f20922f91d	-0.020301610763220446
88	0x3f97dce2ee21649e	0.023303552421883304
89	0xbfa4674edd21d662	-0.0398506779610386
90	0x3fa9d3d350ce9433	0.05044422494328451
91	0xbf54df761a387272	-0.001273980459593063
92	0x3f7a186e86bebf7a	0.006370956176325987
93	0xbf8cc7720148b9e3	-0.01405228678148957
94	0x3fbf6f3a903e7545	0.12279096623975246
95	0x3fad9046d59ae071	0.05774136884196047
96	0x3f919991efa8bc55	0.01718738580001074
97	0xbf842adc13993bc7	-0.00984737334070286
98	0xbfbeeb1c6391ca7d	-0.12077500754257105
99	0x3f5690d808ec73e0	0.0013773069110307665
100	0x3fa62f8c33f6422d	0.04333150991726984
101	0xbf9b0b9f372ed4b3	-0.02641152166662115
102	0xbfb581ae62d44889	-0.08401002800772707
103	0xbfa3f6c5a4cec9ef	-0.038992096298347316
104	0x3f8b6bcad6f667c6	0.01338919132722428
105	0xbfb17ff4d2e63594	-0.06835870884807199
106	0xbfa7cfe814c3b4c7	-0.04650807622406599
107	0x3fabb68f716ed14b	0.054127199742114294
108	0xbf5b4edb7a53c0e5	-0.0016667502725873859
109	0x3fb048773b767040	0.06360573960995541
110	0xbf97e9e2f1bed89f	-0.02335314369676011
111	0xbf871413638cfcde	-0.01126876018099526
112	0xbfb02e39350bcc6c	-0.063205314112382
113	0x3fa0dca3441025a3	0.03293333249900889
114	0x3fbef43709b95ecf	0.12091392505078179
115	0x3f99f945684ab497	0.025364956369845783
116	0xbf4d7bc1a03c3b9c	-0.0008997626723344812
117	0xbf68a33b0d068e7f	-0.0030075219476247135
118	0x3fb61b6e24e7f0c4	0.08635605240846461
119	0x3fa974a8d48fdcaa	0.04971816630125521
120	0xbf9444a11683fa1b	-0.01979304981159134
121	0x3fac3043ad859cfb	0.0550557278937109
122	0xbfa2390fa8d21db7	-0.03559159217644086
123	0xbf9d30dd118d646b	-0.028506712147052953
124	0xbf901c63a960595a	-0.01573329659739762
125	0x3f98e6ae64e6e5c6	0.024317479046407596
126	0xbfb6c6f0b76a7873	-0.08897308805396324
127	0xbfa809745e511039	-0.04694713260008183
128	0xbfa5a02a266636fa	-0.0422375842928044
129	0x3fa1db293f2b30ca	0.034875191651367723
130	0x3fbd184ddb4e4f74	0.11365210155628153
131	0xbfb32fa5c2126b52	-0.07494579303822249
132	0x3faae6b1fc000925	0.052541315089927466
133	0x3f9c50deb0a4e551	0.02765224412107631
134	0x3fa956f357573420	0.04949150506181632
135	0x3fa0d9b4a34c1891	0.03291096204161293
136	0xbfa6f5b3918ecbb5	-0.04484330322102129
137	0x3fb292b17bfc3231	0.0725508620927904
138	0xbfaaea31c20fc314	-0.05256801122584967
139	0xbf7fa77e918a8619	-0.0077280944903193255
140	0x3f8049e48141ac5a	0.007953438944431724
141	0xbf4768d037169f2c	-0.0007143990207411958
142	0xbfb56730208cdb4d	-0.08360577387507569
143	0xbf9ce6b89e8d8dac	-0.02822388141374936
144	0x3fb823bb955932ae	0.09429523845865148
145	0xbfaa004e55601d31	-0.050783584520156196
146	0xbfaa3c35a62c7fb7	-0.05124061254014072
147	0xbf8c0688d6156e92	-0.013684338601414301
148	0x3f82e66be22f7dc1	0.009228556480535556
149	0xbf92a333d3034c5e	-0.018200692896084163
150	0xbf91ab76e772ca0a	-0.017255647541512466
151	0xbfa78f4682ccef62	-0.046014979807721415
152	0xbf9e3cc3450a8d31	-0.029528666581098043
153	0xbf8138639c2c6cd9	-0.008408334926164706
154	0x3faa6cc1b08adb49	0.05161099700983713
155	0xbfa4cce44e10789c	-0.0406257005017647
156	0xbf9a14214b3603cf	-0.025467415061488027
157	0xbfa241565ea1347b	-0.03565473466060439
158	0x3fc3b171e443a7f8	0.15385268827168352
159	0x3fb326a53f38f593	0.07480843347089765
160	0xbfae4cce3f90e4df	-0.059179730662842316
161	0x3fabc26f3d7afbe0	0.05421779275410876
162	0x3fbdd09fbe43b133	0.11646459956290726
163	0xbf5601e597fbd3a4	-0.0013432256818621613
164	0x3f866928f1532aec	0.010942764153147398
165	0xbf80de386cbba660	-0.008236351793544816
166	0x3fb4fe8b06d6f852	0.08200901905999672
167	0x3fafd5fcb6607fa5	0.06217946745186901
168	0xbf95d7b6d5dc2b88	-0.021330696871739302
169	0x3fa8bcb00b0c17ea	0.04831457266668322
170	0xbfa0c0ae407bc41e	-0.032720036860958354
171	0xbf94468f3189bfc6	-0.019800412558140378
172	0x3f78f848859dfe1b	0.006096156395755804
173	0x3fa164840bb157c1	0.03396999972089488
174	0xbfba7317f93b7efc	-0.10331868967795893
175	0xbfb4e2c745928761	-0.0815853638510169
176	0xbfa1540d4f0f9fd6	-0.0338443907747316
177	0x3f98a36c661318e8	0.024060910921229445
178	0xbfc2df65a9cfed2e	-0.14744253913509325
179	0x3f9581253b620d63	0.0210004632467763
180	0x3fa409c19c637e22	0.039136934605036325
181	0x3fa2f268c195d25d	0.03700568545437897
182	0xbfb47b9176a1458f	-0.08001050134887165
183	0xbfb319ad340854ad	-0.0746105434448789
184	0x3fa0a7af0dce89e3	0.03252932590045867
185	0xbfa8aff7902fdc8b	-0.04821752200216974
186	0x3f7ced03c9cacd2d	0.007061972425322066
187	0x3fad496c7a8b224b	0.05720080371753918
188	0xbf9f354bdedd6950	-0.030476747014611505
189	0xbf40d5499ca4a9c8	-0.0005137071068806393
190	0x3f98d4cf47bc9cb6	0.02424930453630899
191	0xbfa26b3bc790227e	-0.03597437678405856
192	0x3fae944c23f9b409	0.059725169555214626
193	0xbfac31d3cf7bd30f	-0.05506765277633551
194	0xbfb16ca0441fda2e	-0.0680637518233673
195	0x3f9c792a6448cb39	0.02780596005522826
196	0xbf8279d41fa1d6d6	-0.009021432128274592
197	0x3f45c2f3fba91268	0.0006641093562583357
198	0xbf8223ed050914c9	-0.008857585636301473
199	0xbfa449df665bedb8	-0.039626103634840815
200	0xbf8984533070dbcd	-0.012459421077535194
201	0xbf831f5df495d7e7	-0.009337171579982552
202	0x3fad27460d60df1f	0.05694025910673716
203	0xbfab9425de68b75d	-0.05386465396837423
204	0xbf897eb326470462	-0.012448691945680494
205	0xbfa72ea33a0537b4	-0.045277691681448046
206	0x3fbe38b67208efb0	0.11805286678367
207	0x3fb5d8d6ef86ec3f	0.08533995960071737
208	0xbfb0a6afcf96a243	-0.0650434381301546
209	0x3fabe4d0a7bcfbd5	0.05448009536348023
210	0x3fbc0177b6a42df7	0.10939739426628835
211	0x3f91c7b2c8d02a30	0.017363351351415257
212	0xbf7bd8ef073c4e2c	-0.006798680977016452
213	0xbf9192e59db45a0d	-0.017161929846304647
214	0x3fb1b91e27ba604f	0.06923092336580904
215	0x3fb41f03db433dc5	0.07859825232593838
216	0xbf6f4605413b6d0a	-0.0038175680764261965
217	0x3fb3ec8b0d8628c1	0.07782811241318922
218	0xbfa6e3b7616c4deb	-0.04470608772512804
219	0xbfa2d3663bb5dad5	-0.03676909903417928
220	0xbf57c62ce10367e6	-0.0014510572691990241
221	0x3fa398c9039b4695	0.03827503365540711
222	0xbfb78cfea7458b2c	-0.09199515899449001
223	0xbfaba4bde116e8a0	-0.05399125454592135
224	0xbfac3c816fba9fd1	-0.055149121178430634
225	0x3fb01cc4814ecf37	0.06293895871095577
226	0x3fb69cf19c6ab12b	0.08833227223175714
227	0xbf8e4f98794c2898	-0.014800254060464632
228	0xbf5e1a55625d2172	-0.0018373330908208721
229	0x3f73b6062a561b35	0.004812263568402743
230	0x3fa8b5b8fe9f1cbc	0.0482614336793232
231	0x3fb2f3e5dda8e78f	0.07403408681503108
232	0xbf93d719f8e264c3	-0.019375234428115073
233	0x3fb37e0c84dc14e6	0.07614210361142035
234	0xbfa690244f62b6bd	-0.04406846493780623
235	0xbfa2832edbf30769	-0.03615709719589583
236	0x3fa4948f9d13b933	0.04019593040890115
237	0x3f9b64025d6c869d	0.02674869246687327
238	0xbfb63d2049dea0a9	-0.0868702106805609
239	0xbfb3ad7a3d1c38df	-0.07686580650281226
240	0x3f546344e21827b1	0.0012443707167926028
241	0x3f873959f7d34fdc	0.011339857936412949
242	0xbfa106a5fb084c38	-0.03325384797440062
243	0xbfad0ec2b56a6ad5	-0.056753239293546955
244	0xbfb02a40df8bb8a1	-0.06314473588619986
245	0x3f94a2cb9cca007c	0.020152265019078616
246	0xbfb1a612b1a92416	-0.06894032323283769
247	0xbfaa9ae17a069a96	-0.05196289648602208
248	0xbf911a217373a74a	-0.016701243087403207
249	0xbfa8ae6e45f3a33f	-0.04820580104735094
250	0xbfb1dc01766bcf05	-0.06976327077046214
251	0x3f6986ac525e8ef7	0.003115974965980924
252	0xbf57278506ebbd68	-0.0014132308094153227
253	0x3fb2a4e1a32aa0aa	0.07282839044148895
254	0xbfb46b60ffb1ae3d	-0.07976347200899965
255	0xbfa27dff807fd5c9	-0.03611753886790898

logratios_1d.classifier.net.blocks.0.linear_layers.0.bias f8 [2, 16]
0	0xbfa2700e9a659f04	-0.03601117739418494
1	0xbf8f90596f017ec3	-0.015412043285493287
2	0xbf7225241f1c19de	-0.004429951762864507
3	0xbf914f28898b9f9d	-0.01690352763662838
4	0xbfa5c471a591252b	-0.0425143732650873
5	0x3f9af2bda3bb1582	0.026316607588133596
6	0xbfa70c6aa5ad8f33	-0.04501660606800186
7	0xbfa963269c93dcdf	-0.049584585774874894
8	0xbfa49334e1ecf78b	-0.04018559701806542
9	0xbfab03d09efef7b8	-0.0527634805762171
10	0xbf7bf658fce28ffa	-0.006826732262343422
11	0x3fa2615c7277c8a0	0.03589905640900892
12	0x3f867ddf35c3ca05	0.010982269123336339
13	0x3fa52d4803f6774c	0.04136109398244389
14	0xbfacd9f7bd94a453	-0.05635046185700134
15	0x3f9c00e60c52de7c	0.027347177984408763
16	0x3fa61770a997a22e	0.0431475836774705
17	0x3f9cf3301b9acf3b	0.028271438298090628
18	0x3f9693c95d727086	0.022048136070779843
19	0x3fa9c161a3a16df9	0.05030350801890999
20	0x3f9c7675ea875ee7	0.02779564136457582
21	0x3fa27829140dd253	0.03607300157355966
22	0xbfaac8f84da4aad7	-0.05231452892106397
23	0xbf9c48be626c03f2	-0.02762124515266246
24	0xbf75dc83906df0fb	-0.0053372515893637075
25	0x3f90d90156d38c76	0.016452809261761257
26	0xbf94b0e1f069e080	-0.020206003473930867
27	0xbfa6f3d608c82aa6	-0.04482907159043252
28	0x3f9a742e941d3dc8	0.02583382395760994
29	0x3fa03ee1d61ca20c	0.03172975290937438
30	0x3f76990c41f04f7b	0.005517051583428296
31	0xbf9608242a6a16ad	-0.021515431488771487
