tutorial_notebooks/lightning_logs/version_1/checkpoints/epoch=7-step=616.ckpt (torch, 274722 bytes, 147 tensors)

embedding_network.weight f8 [32, 100]
0	0x3fb2486e4ffc9a55	0.0714177079467871
1	0xbf9d500db3613550	-0.02862569243761942
2	0xbfa6f2684bed949a	-0.04481817175727905
3	0xbfb2a56feb428583	-0.0728368710865848
4	0x3f9e2c352a449c80	0.029465513901552942
5	0xbfb6239b645f73af	-0.08648081970700504
6	0x3f944de5bc56b18c	0.019828405018118597
7	0x3fa4bb404132e5cc	0.04049111171611805
8	0x3fa06fc99cecf1ca	0.03210287132830876
9	0x3f93029f7e60b7fb	0.018564693535317627
10	0x3fb8878ebb8c3448	0.09581844404984097
11	0x3f7c1dee6e0ad4f1	0.006864482275593207
12	0xbf825a38de68dcee	-0.008961147582438458
13	0x3fb49e526d0c18ad	0.08054080164228834
14	0x3fb2256e762c50dd	0.0708836592205588
15	0x3fb54a6967aed34a	0.08316668301888544
16	0x3f70aa3ba2ce1f5d	0.004068596795043647
17	0xbfa73788abe9e92c	-0.04534556482845384
18	0xbfa3dffa508760f1	-0.038818189935854515
19	0xbf8b1b04ceca7a43	-0.013235127983816436
20	0x3fb137df42b7a795	0.0672587907680778
21	0x3fb4ebd4c6f2873e	0.08172349793542552
22	0x3fb399f47946e9fc	0.07656791649689149
23	0xbf7d797b4d0efc6d	-0.007195932049341197
24	0xbfb309ad969a0dfe	-0.07436642576981708
25	0xbfb63dab4ae7f175	-0.08687849596748783
26	0x3fb47c907a4a943c	0.08002570138576542
27	0xbf7644bf2c58772c	-0.005436655779275584
28	0x3fb48ce00f1cf823	0.08027458542798675
29	0xbf95b26a18f99928	-0.021188409590103735
30	0x3fbd1efc704e89b5	0.11375406019082031
31	0x3fb8ca964c0dcb52	0.096841233795016
32	0x3faaa8ac1d1468d1	0.052068117666026155
33	0x3fac29c8b3f52135	0.055006286590073485
34	0xbfa80eb2bb177f50	-0.04698713811717303
35	0x3fa24383556087b9	0.03567133347702573
36	0x3f7c4227ffb69cd0	0.006899029012323157
37	0xbfb832d6d91cc851	-0.09452574539753412
38	0xbfaecbf633902505	-0.060149854463881915
39	0x3f5f89095775b5d2	0.0019247618891670049
40	0x3fa5ccaec4d0110c	0.04257723000049127
41	0xbf809d3717af9cb7	-0.008112364206637286
42	0x3fb05c731cf90c58	0.06391066987366523
43	0xbfa0927173716e31	-0.03236727270333651
44	0x3fa5882561151542	0.04205433664405202
45	0x3fa99194f4a2c0c4	0.049938826430094646
46	0x3fb56ac3456bd128	0.08366032070972962
47	0x3fa01400c6fc2774	0.03140261105552514
48	0xbfb1b69290d7c2d8	-0.06919208561135848
49	0xbfb2eba9070706e1	-0.07390839025085995
50	0x3fb233b63c5642ea	0.07110156033582951
51	0x3fb157948d17ae0c	0.06774261898652173
52	0x3fab1236b194e1ea	0.05287333410018731
53	0x3fa8fb329671fa70	0.048791485657592726
54	0xbfb15aca7d1e0a7e	-0.0677916102850222
55	0xbfb246ed5275a56b	-0.07139476073429811
56	0x3fb6d5b5abe45d30	0.08919845053275277
57	0xbfa6c051b0f92eef	-0.044436028340525506
58	0xbf93e0dfa5d95c2f	-0.019412512300132242
59	0xbfab8e68a74807df	-0.05382086793908036
60	0x3fb7558bf362e1ac	0.09114908878371492
61	0xbf9a2c3faa4aa063	-0.02555942036511317
62	0x3fb2ca66e4241273	0.0734009081825862
63	0xbfb7f3867387d4e3	-0.09355964966364953
64	0x3f97c1b58b1027dd	0.023199879276979963
65	0xbfb5f60cdce31ee7	-0.08578567879441899
66	0xbf846214ec561c30	-0.009952701055921137
67	0xbfb558446ef61c33	-0.08337810238855141
68	0xbfa6dba734f0d73d	-0.044644570553300934
69	0xbfa0045f7e1d08a8	-0.03128336348028543
70	0x3fb34a9cb39e2779	0.07535724053573557
71	0x3fb78e7b572072a7	0.09201784970395953
72	0xbfbcba9422b30962	-0.11222196433212653
73	0x3f94d445b6af75e7	0.020341004634124273
74	0x3f963c67cf753278	0.02171480373117382
75	0xbfa42b08fed47401	-0.0393908320495271
76	0xbfb36c3967ba081d	-0.07587012083425333
77	0xbfa6a9b48a9a15b2	-0.04426349822919508
78	0x3f809792b20c5de9	0.008101602610209606
79	0x3fb08f4be65d3b0a	0.06468653082013645
80	0xbfab72bbb3c25e77	-0.053609719937580395
81	0xbfac8b8193aa4246	-0.055751847529908846
82	0xbfa5a6fe8893f748	-0.04228969018184486
83	0xbf77c3b1d390b066	-0.00580186332176078
84	0xbfb6cc18d58f2e6e	-0.0890517732033744
85	0xbfaa44c3cae0594b	-0.05130588389890763
86	0x3faa4dc1d30db7b4	0.05137448979699802
87	0xbf93315d191479ec	-0.018742994933853938
88	0xbf78cfd3b3664b52	-0.006057574230356648
89	0x3fa54f27d4827846	0.0416195341979209
90	0xbfba16e7a69ed3b1	-0.1019120008266572
91	0x3fb06b40a6ab6910	0.06413654393273682
92	0xbfb23d665b3e2d6a	-0.07124938705071818
93	0xbfb8fb647a02e236	-0.09758594492712622
94	0x3f84e67b8fba9415	0.010205235790019565
95	0xbf91f56caf8c35d7	-0.017537782873707854
96	0xbfb8cae6c7a28629	-0.0968460309400362
97	0xbfa372615a7a489d	-0.037982027334821235
98	0xbfb2347f9257eb2f	-0.07111356089437203
99	0xbfb7ddcc6ccdc879	-0.09322812706321483
100	0xbfa6c7e597ecbacf	-0.04449384192991134
101	0x3f92311165655869	0.017765304387772938
102	0x3fabe223991b858a	0.0544596790694057
103	0x3fb9f2bdd18ba7fd	0.10136019101960865
104	0x3fb62e46e4c6bac4	0.0866436298881395
105	0x3fb47b4a22f64264	0.08000624993861433
106	0x3fac42cd8645979a	0.05519716514645197
107	0xbf76dfbbfda8fb65	-0.005584463443084474
108	0xbfa70a7ca7cce440	-0.04500188396782123
109	0x3f99d51e1e1521e1	0.025227041803448706
110	0xbfa8cdf1cfbd080d	-0.04844623242253485
111	0xbfab577ce0825cf3	-0.05340185394850918
112	0x3fb95a053b4cfce1	0.09902985284587686
113	0x3fbc7e7b8ac4c73c	0.11130497110277998
114	0x3f9362cb854344f2	0.018931560524667775
115	0xbfb031b0a05f3da6	-0.06325820842106697
116	0xbfa173db5db03ea4	-0.03408704298646839
117	0x3f9a9aefe2d31c23	0.025981662959363782
118	0x3fb1405e35900bde	0.0673884278076424
119	0x3f95c549c03aa77c	0.0212604068353026
120	0x3fad1376bc4262b4	0.05678912208640466
121	0x3fa69656118ac938	0.044115724221585884
122	0xbf8c5dd9dc7e8120	-0.01385088161606568
123	0xbfa93f245635eeca	-0.04930985977531817
124	0xbf35a5e34783566b	-0.0003303222542972775
125	0x3fa4eecde0945da1	0.04088443151902799
126	0xbfb43bb1deab2b05	-0.07903587042089207
127	0xbf8ee0a8cc286b07	-0.0150769412330667
128	0x3fa8ffc5dfe715fd	0.04882639272868159
129	0x3f95c17ebc22ef69	0.021245937569559645
130	0x3fb0508d6dde47df	0.06372913296061665
131	0xbfaba96518ea5453	-0.0540267556108708
132	0xbf8e5f64463bdd3d	-0.014830382722250785
133	0x3fa12066bd846965	0.03345032752459324
134	0x3f88987c2a58251a	0.012009592096563316
135	0x3f859c85d84d85cb	0.010552449859178822
136	0x3fa541db97cf4645	0.04151808002610528
137	0x3fb705015abff2e9	0.08992012467929168
138	0xbfac7967ece2cdbe	-0.05561375395464151
139	0x3fa2aa3c49f5c232	0.036455043819732316
140	0xbfb08cc073714656	-0.06464770143909368
141	0xbfb7637f40cf1da6	-0.0913619549966059
142	0xbfb896dc5d9a8b3e	-0.09605195317503232
143	0xbfb172cd54034731	-0.06815799046605943
144	0xbfaa39c4caeee23e	-0.051221990367996004
145	0xbf9e5536d71c6fbd	-0.029621941451395396
146	0x3fae7c5347873f7c	0.05954227684162469
147	0xbfbc54e1f1b24fd5	-0.11067020560068326
148	0xbfa25a6821228723	-0.0358459988067479
149	0x3fae38a08ab05eb9	0.05902578061085024
150	0xbfb71c74e71809a7	-0.0902779640382848
151	0x3f8453177f315cb8	0.009924110001675465
152	0x3fb25d7b60b16345	0.0717389212671949
153	0x3faab9a54f675bb5	0.052197614615287526
154	0xbfb00ddb25e9255c	-0.06271142650179712
155	0xbf7c59f1f2d513a7	-0.006921715842797583
156	0xbf963b065205db97	-0.021709536319999136
157	0x3fb167c0d1b61c5d	0.0679893981924677
158	0xbfb34a64586cf427	-0.07535388144329201
159	0xbfb1674fcd16b524	-0.06798266179130913
160	0xbfa0217bb3546b5a	-0.031505456581917016
161	0x3fa473f1a0ccdc7f	0.039947081450400816
162	0x3faf7535f5d19c4c	0.06144112230031648
163	0x3f9dc2b2351c5340	0.029063019267670187
164	0x3f9c50e7ee2a2e85	0.027652381812500088
165	0xbfb7c49445ae0a4a	-0.0928433103672798
166	0x3fad87a8a4aafeb4	0.057675619221752156
167	0xbfba64e1ab9d22e9	-0.10310182990827922
168	0xbfb9de838c8c715a	-0.10105154210436265
169	0x3f96352672894f6a	0.021687126866097563
170	0x3fa632a26c4fdd3f	0.04335506031196212
171	0x3f524257e0c768a8	0.0011144502815257171
172	0xbfa8d6c37df1b876	-0.04851351654439011
173	0xbfb7f379776176c4	-0.09355887569969484
174	0xbfaa0e4525e74720	-0.05089012229622214
175	0xbfb2b9542122b705	-0.07314039048170791
176	0xbf990bfab07f0bea	-0.024459759733655696
177	0xbf89d0ed4aa0fd0c	-0.012605527725212194
178	0xbf828f748550d3a4	-0.009062681501839816
179	0xbfa2a047452fb4f5	-0.0363790771442413
180	0xbfb5c3f59fbdb82e	-0.08502135419777865
181	0xbfb3d00f38cb3a78	-0.07739348541802282
182	0xbfb6216002843b9d	-0.08644676267088731
183	0x3fa7cd0e382cdb6f	0.046486324651076376
184	0x3f9ebfd99d421f49	0.030028724883350653
185	0x3fb8a3d6c0c7ffcf	0.09624998289655128
186	0xbf97bf4d76d25c07	-0.023190698983480498
187	0xbfb2a3b9e3ad74e1	-0.07281076248678488
188	0x3fb20f4c400ed8e6	0.07054592670360513
189	0xbfb883d0289b2599	-0.09576130858763178
190	0xbf96c4ad70955494	-0.022234640118160856
191	0x3fb31c31c464ce7a	0.07464896244783317
192	0xbf9b6c10f478a85f	-0.02677942745337025
193	0x3f7ef09a967bb036	0.007553676470461615
194	0x3fa531806a841591	0.04139329242938595
195	0xbfb4eed78b57ce47	-0.08176943923882006
196	0xbf8a3984bab7640a	-0.012805020282870689
197	0xbf9e8852bbed14a4	-0.02981690666208138
198	0x3fb0ae42ef98b228	0.06515901898883014
199	0xbf93ae9f4861525c	-0.019220818321928554
200	0xbfacbaa944309993	-0.05611161191363858
201	0x3fb23c1a3da5f9ea	0.07122959141813792
202	0xbf8783a139741413	-0.011481532636489466
203	0xbfaf61714e24939d	-0.06129030302898928
204	0xbfa44f57c457821a	-0.039667837827213684
205	0x3fb34672f88e0dfd	0.07529371803507696
206	0xbfab31e58ec6e887	-0.05311505668528676
207	0xbf9b3cbc5890e950	-0.026598875909465136
208	0x3fae04391baa95bd	0.058625969531287826
209	0x3fb1f55405af01bb	0.07014966143379457
210	0x3fa650edb5d940c2	0.04358618588287434
211	0x3fa9ef7093c37e4d	0.05065490535502857
212	0x3fa468d74ff8752b	0.039862373840359254
213	0x3f91c4eb4a905386	0.017352749277125955
214	0xbfa715a62117c357	-0.04508704332318441
215	0x3fab2b19dddafdb5	0.05306320985027516
216	0x3fb0f04d546c88fa	0.06616671858913384
217	0xbfaf9350e7d7328c	-0.06167080717168458
218	0xbf9747267bc1df68	-0.022732354453608578
219	0x3facf3c2db87a256	0.0565472500782717
220	0x3fb2586f98731de8	0.07166192504802604
221	0x3fa7f3f3b5292d9c	0.04678308092533287
222	0x3fb3a4603067c65e	0.07672692472240203
223	0x3fb4a90d2877e8c8	0.0807045196342272
224	0xbfa28ed37abd562f	-0.03624592660223091
225	0xbfb7aef0a7e9ff97	-0.09251312350715889
226	0x3fb46871fe2a8b15	0.079718708565036
227	0xbf9bf2aef2bfc773	-0.02729295117018844
228	0x3fb247adeed36ffa	0.07140624123297803
229	0xbfb706fa4312d167	-0.08995021951233682
230	0x3fb1e5e75b552097	0.06991430263326702
231	0x3f99cd472a14ff17	0.025197135871393685
232	0x3fa269206905efbf	0.03595830232640606
233	0x3fadd5604d235183	0.0582685560381462
234	0xbfb592372c6f3489	-0.08426232180427652
235	0xbfb3b07836d2b203	-0.07691146219685412
236	0xbfb4e5260d8f981c	-0.08162153082921048
237	0x3f924357ed8e44bc	0.017835019945384487
238	0xbfab702f03e76e8b	-0.05359026835114119
239	0x3fa87b6a6e08ce3d	0.04781658738320658
240	0xbfab4b3dbeb5035a	-0.05330841973273577
241	0x3fa520729ecb09ec	0.04126318157570438
242	0x3fb23a8c62fa8dc3	0.07120587746117395
243	0x3fb2ed46755837ba	0.0739330326543656
244	0x3fabbba2d454f3c3	0.05416592447225057
245	0xbf947989f5d970c0	-0.019994884138541336
246	0x3f89a7ff7b24e0f4	0.012527461953695675
247	0xbfb5b39aa5b35da8	-0.0847717909376714
248	0xbfaf564135aa0bc9	-0.06120494632798274
249	0xbfa92c3f7cd139a0	-0.04916571043632989
250	0x3fa3dbe5c3c5f276	0.038787059925174214
251	0x3fada58cce8e6a6c	0.05790367146910999
252	0x3fad6e036e9de6b9	0.057479960682895244
253	0xbfb12f5a2e73d1d4	-0.06712878831951424
254	0xbfb5f952da8632c9	-0.08583562693656711
255	0x3fb0b1c9645f4173	0.06521280956736124

embedding_network.bias f8 [32]
0	0x3f96bee0559f12a5	0.022212510324396324
1	0xbf9dfa15c4299682	-0.02927431115894886
2	0xbf861d3f1755a4ee	-0.010797970676053894
3	0x3f7bac8e972308b8	0.006756360047974912
4	0xbfc09bfb2a76e7ac	-0.1297601659151132
5	0x3fb77d534a0c6eb3	0.0917560630591037
6	0x3fa9bbebec03fbbd	0.05026185279893223
7	0xbfb45e1937eccc88	-0.07956082930904718
8	0x3f9e3c8612a0f32f	0.02952775467587115
9	0xbfc14ed58e302ee8	-0.1352183288839719
10	0xbf9495f6ee5a7e0b	-0.02010331945223069
11	0x3fbed1f2f6d8d23e	0.12039106871163427
12	0x3fd134716a2be0e8	0.2688258683042606
13	0xbfc2561555fd2b38	-0.1432520551555514
14	0xbfa4edde17b844bd	-0.04087728538082434
15	0x3fa5f81f4a8e0150	0.04290864739505429
16	0xbf97f3f3649239eb	-0.02339153577173107
17	0xbfbce81192c59f50	-0.1129160865144716
18	0xbfaa474f5f6817a7	-0.05132530250197869
19	0x3fc1cb896b83f63c	0.1390239500978384
20	0x3fbf85487c63129f	0.12312748944084227
21	0xbfbd0bf068cb4721	-0.11346342619370066
22	0x3fce4331f45a8da1	0.23642563277563247
23	0xbf8defb3192583e4	-0.014617346959029782
24	0x3f9388b2ce71a1cf	0.019076150751432593
25	0x3fb1da11bd50d1cd	0.06973372337308277
26	0x3faa8fbbd274a25e	0.05187785095251195
27	0x3fb4ec656075eab5	0.08173211674685883
28	0x3fcea466238e1b95	0.2393920587166717
29	0xbfa60cc559e87142	-0.04306618425855159
30	0xbfb5376a8f056edf	-0.0828768347905071
31	0x3fb1d4a068d78b02	0.06965067443483622

logratios_1d.ptrans.online_z_score._mean f8 [2]
0	0x4013efdaecb15802	4.984233568500715
1	0x3f9b5ef0f2bd2fb3	0.026729359450925205

logratios_1d.ptrans.online_z_score._M2 f8 [2]
0	0x4123f438663b2040	653852.1996698454
1	0x4123ff57905962bb	655275.7819319585

logratios_1d.ptrans.online_z_score.epsilon f8 []
0	0x3ddb7cdfe0000000	1.000000013351432e-10

logratios_1d.classifier.net.initial_layer.weights f8 [2, 16, 33]
0	0x3fa4cd377d632468	0.04062817960363746
1	0x3fa2749bfd2537cb	0.036045908595596275
2	0x3f74395771669850	0.004937497686489392
3	0xbfb13b912c7aaf62	-0.06731517158430969
4	0xbfa3d840484a5902	-0.0387592399830954
5	0xbf58b40c472f1e5d	-0.0015077705290752676
6	0xbf85a023817471ed	-0.010559346569203288
7	0x3f95cc6b3ce80ee0	0.0212876087116588
8	0xbf959f3cb012c3f6	-0.0211152536837211
9	0xbfa07fee19c5f5aa	-0.03222602905860168
10	0xbfa9f69560568d6c	-0.05070940781595365
11	0xbf938e8f25bb50ba	-0.0190985075740435
12	0xbf7638fe381844a2	-0.005425446551741294
13	0xbf82280ad4b9694d	-0.008865437142209354
14	0x3fa2320e076b0ab9	0.035538137822660194
15	0xbf63197ddfd6e1fc	-0.002331491325744615
16	0x3f91f22da64dcc75	0.017525399470696052
17	0xbfad3eb7d60e9e33	-0.0571191262054608
18	0xbfa55058a54568e1	-0.04162861840696209
19	0xbf9f51e0781812cc	-0.03058577282901602
20	0xbf7b04c492205bde	-0.006596343855583135
21	0xbf9dd112d3f6d897	-0.02911786478735986
22	0xbfab38217a9512c1	-0.053162618840848726
23	0xbfa18efb0ff7b058	-0.034293981265222484
24	0xbfac8c59d52948c0	-0.055758292456304925
25	0x3fad72eea7eeabc2	0.05751748847918449
26	0x3f8525b605ce1779	0.010325834324031767
27	0x3f81f6b9bff4cdb3	0.00877137295774486
28	0xbfa2df24c981ce76	-0.03685870132258355
29	0xbfa444f60e5d0264	-0.03958863187154263
30	0xbf80113f85197c73	-0.007845398187042307
31	0xbfa41bca76cc39f4	-0.039274527551345445
32	0xbfc242d9bdd9ee3b	-0.14266511697847925
33	0x3f8eed51534f59a2	0.015101085047643906
34	0x3f827cb3887e366b	0.00902691135686525
35	0x3f44e02df6d42de7	0.0006370758470963218
36	0x3f6f70a7ad51e926	0.003837897772027382
37	0xbf995d973023135e	-0.0247710822229864
38	0x3f9a8e55384958fc	0.02593358188672655
39	0xbfa3e588fac5be7a	-0.038860588657255016
40	0xbf8069ac67aab103	-0.008014056123407892
41	0xbf9d799915b51d2d	-0.02878417201034471
42	0xbf95e30e913a9f2f	-0.021373965848993478
43	0x3f675319154d6183	0.0028472413927539976
44	0x3f877c5e8c8f502a	0.011467684425873943
45	0xbf74fcb082566da9	-0.0051237959754887675
46	0xbf87704660a2d24b	-0.011444616149995165
47	0x3f8c81c6dd4076d8	0.01391940462786627
48	0x3f89b30052594831	0.012548449051937723
49	0xbf7edce02a2d5194	-0.007534862178392738
50	0xbf9e9144d9c74fd0	-0.029851032058857474
51	0xbf50e32f27f0d4b2	-0.0010307274349206472
52	0x3f7b25420c9337da	0.006627328876858097
53	0x3fa2025ba42de2ef	0.035174239913379306
54	0xbf9de884abc3ae9f	-0.029207299216905565
55	0x3fa4e50395edf4f4	0.04080973820871661
56	0xbf70011aa4dbf3d5	-0.003907302930881114
57	0xbfa09bf1072c92e6	-0.032439739347216265
58	0xbf47a60872476446	-0.0007216969721027886
59	0x3f835ebe5cd066c7	0.009458052833042697
60	0xbfa84a873a26f486	-0.047443605278638265
61	0xbf8dfe165cda66d8	-0.014644789417889312
62	0xbf9f8f30c7d77a83	-0.030819666097040354
63	0xbf590f112e430f19	-0.0015294711857202824
64	0x3f9366aa5b2e4b94	0.018946325125920163
65	0xbfc7f5ad21da7fae	-0.18718494561198668
66	0xbf905eea9e3bfeac	-0.015987077625139776
67	0x3f87d0c8cf5cfa8f	0.011628693416807749
68	0x3f9f46dd02b25172	0.030543759622177764
69	0xbf8aa15e2626c00d	-0.013003097094809868
70	0x3f7ea2cdefa1e99b	0.007479481160880398
71	0x3f69d857b162036d	0.0031549179794300637
72	0xbfa84f8a4e0a25d3	-0.04748184397346802
73	0xbf65a7cbf45fbad0	-0.0026434882629396764
74	0x3f8e2f4dcddd8538	0.014738662571917346
75	0xbf9374a6d859a367	-0.018999678568806824
76	0x3f886454de558e56	0.011910117182828344
77	0x3f44ead82e61f339	0.0006383472034624311
78	0xbfa3cbbdc8af0146	-0.03866379809142244
79	0x3f9ece0c5d016da0	0.03008288686429028
80	0xbfa6b63e7d498353	-0.0443591621340206
81	0x3fa0e0f7fefcbcf3	0.03296637523305348
82	0x3f922bc2eeb27d05	0.017745061701700333
83	0x3fab42a959dec62d	0.053242962093815606
84	0x3fa6d3daef50d32a	0.044585077012391075
85	0xbf99ea174b19608d	-0.025307048758208373
86	0x3f9776aff660c9c5	0.022913693821644338
87	0xbfa50393df88f86f	-0.041042920147888455
88	0x3fa02a1bfb49ad6a	0.03157126848676735
89	0x3fa2205c7f44c2df	0.03540314725467452
90	0x3f95155a221d77bd	0.020589264232846228
91	0x3f9205fef045d858	0.017600997366990917
92	0x3f9b25e5fe9d412e	0.026511758485242946
93	0xbfa13683256684c6	-0.03361902076290728
94	0xbf87b896bad45ab9	-0.011582543922981402
95	0x3f8fe59b2284d481	0.015574657431537854
96	0x3f9d845a5df8fd65	0.028825199113496142
97	0xbf84938915fc530a	-0.010047026618431616
98	0x3fc6139724f233cd	0.172472851791467
99	0xbf97dc51d04b4282	-0.023301390016799768
100	0xbf9a631acfed93c7	-0.025768679562492538
101	0xbf7ad0a383f296cc	-0.006546629650221635
102	0x3fa60853f6f40d8d	0.04303228749815977
103	0xbf84994ce0b657eb	-0.010058022124933749
104	0x3fa416e2e5a8f421	0.03923710874048703
105	0x3f977a42181424e0	0.02292731544460913
106	0xbf6ae6d43a28df13	-0.003283895975325532
107	0x3fa46095bd4ed02c	0.03979938445937167
108	0xbf911030acf195c0	-0.016663322978635042
109	0xbfa204ea8eafdce7	-0.03519375793251261
110	0xbf78ad188ed98ca8	-0.006024452142443661
111	0x3f83d787898f600d	0.009688433537959918
112	0xbf9bb84190606e62	-0.027070068776181684
113	0x3fae98308cdf525f	0.059754864879924645
114	0xbfa17e2726eaa807	-0.034165595532002206
115	0xbf60d18f64349ab8	-0.0020530510534116607
116	0x3f9b5c06e9b29504	0.026718242658394523
117	0xbf8ddc73bf73a69c	-0.01458063533796699
118	0xbf9ba419999d41a5	-0.026993179322120437
119	0xbf74f1f2836a1470	-0.005113551442836969
120	0x3f69299649e96ea1	0.003071588070538159
121	0xbfa2ff60ad3ced64	-0.037104626795975176
122	0x3f8d02a458916e3b	0.014165195420154144
123	0x3f7a4ecf3751f3f3	0.006422814786785291
124	0xbf5a9ac3dabc7680	-0.0016238129273412893
125	0xbfa353cd2ba38047	-0.03774872930239375
126	0x3fa0f2b7db780bac	0.033101792851105344
127	0xbf53e2e8ac1ff1ef	-0.0012137672606505852
128	0x3f84ef2b3f254760	0.010221803535987284
129	0x3f9a9f5a76252e5f	0.02599850984669982
130	0xbf929f2c6a125a8d	-0.018185323690512113
131	0x3fc6bf09ae68dce9	0.1777050115212895
132	0xbf59b113252d516c	-0.0015680968251291184
133	0x3fa985386b120f92	0.04984451586736251
134	0x3f8f17097deb32d6	0.01518065848849785
135	0xbf8bc75dc7660ce2	-0.013563854835189241
136	0x3f8128be5a173125	0.008378493427607278
137	0xbf955817eadf0b8c	-0.020843862257389698
138	0xbf90c84b44314e19	-0.016389061009546155
139	0xbf820cf1fd0fb08d	-0.008813753638570421
140	0xbfb1f9e580fa9cff	-0.07021936797046989
141	0x3f84bf5cf5d6eabe	0.010130621197153796
142	0x3f80cbcc383d381c	0.00820121332767703
143	0x3fa4a67f343b88b5	0.040332770467800406
144	0xbf749a1b0c9d2a57	-0.005029779111121422
145	0xbf78bb70dfb2e229	-0.006038132584926839
146	0xbf82dce8bc3899ae	-0.009210413211872073
147	0x3f73d506692a3e86	0.004841828386488728
148	0x3fa580f221bb56a4	0.0419994035889151
149	0xbfa26cfcbce99087	-0.03598775678691007
150	0xbf9ecac2e91a81da	-0.030070348241339896
151	0xbf73dffa84561324	-0.0048522744958788035
152	0xbf9459463681e5d5	-0.01987180431067322
153	0xbfa3b85a5a0aba3d	-0.038515876285022156
154	0xbf696e45051c35a9	-0.003104338459599194
155	0xbf9b2a78a8bc9c49	-0.026529202746271605
156	0x3fa4399d602f8a5b	0.03950206565038591
157	0x3fb18ac3f40a5b0e	0.06852364261645169
158	0x3f8ee643cabafd04	0.015087632774678734
159	0x3f8318b1f002e1a4	0.009324445855200043
160	0x3f6197b7bf0aa93c	0.0021475399774618913
161	0x3f72c4d65a578b36	0.004582249942788155
162	0xbf9051632e2e0c94	-0.01593546838149658
163	0xbf9dc81b3079adf0	-0.02908365710611166
164	0xbfbc99ff34c58181	-0.11172480619780424
165	0x3f85e15171344684	0.010683666484087036
166	0x3f327080ee4a3d68	0.00028136394238572346
167	0x3f6ad7281d07c925	0.0032764228310436954
168	0xbf8e2930268a71bf	-0.01472699754349882
169	0x3faaf3728379e5e2	0.05263860564168589
170	0x3fa1ee55de111909	0.035021479947817076
171	0x3f8224a052337465	0.008858921536040574
172	0x3f939a691b88eb9d	0.019143717103570535
173	0xbf90ed4e6acf6ca1	-0.016530251759701135
174	0xbf94709b977cd1d0	-0.01996081459147253
175	0x3f557d3f38935b5e	0.0013115994827807768
176	0xbfa3f1a61f6bcff2	-0.038953009925449936
177	0x3f84bc5729a9605e	0.010124855955993602
178	0xbf8fc56f62d1c86b	-0.015513296321135258
179	0x3f8b30bf1070c1da	0.013276570023749313
180	0xbf79398a0c0de995	-0.006158389326510157
181	0xbf944b10140ca92f	-0.019817591880532944
182	0x3f9792bee6fd72ca	0.023020727966797584
183	0xbf963904f046939c	-0.02170188633467128
184	0xbf80c6d32bf525ab	-0.008191728381137539
185	0xbf813c4fc7aa679d	-0.008415816574870944
186	0xbfa85f0ed7eec8f6	-0.04760023485086322
187	0xbf90f4bf289ec02b	-0.01655863461900268
188	0xbf74028d01243372	-0.004885245131174597
189	0xbf96690d121abf2f	-0.021885112981805562
190	0x3f7290641b442ee0	0.004532233277369818
191	0xbf9003c4c8622f28	-0.015639376383247555
192	0xbf86cd7c93316c67	-0.011134122125602454
193	0x3f9e3f48c0c64aae	0.029538285032297544
194	0x3f5c0a9316e9b5eb	0.0017115055485662455
195	0x3f8010bfdaa32132	0.007844447002199748
196	0x3f9090090f8975e8	0.016174451421070574
197	0x3fc2e83aace9bbff	0.14771207278269569
198	0xbf8789582509ef30	-0.01149243224175897
199	0xbf65ea04f0a76fb5	-0.002675065659088783
200	0xbf917230eea4bd0c	-0.017037167134899042
201	0x3f73f66c0b95dff7	0.0048736782567786385
202	0x3f719ada640b2a87	0.004298070038837871
203	0x3f8bb552a52cfee9	0.01352943960739546
204	0xbf8fc36f7387d35f	-0.01550948211022679
205	0xbf832b85a2c8228d	-0.009360355406003574
206	0x3f59c7925885ce55	0.0015734604986307372
207	0x3f51af9c5ea60085	0.001079466538243452
208	0xbf986f6143404f9f	-0.023862380723656092
209	0x3f72c915f289ae85	0.004586301548083709
210	0x3f78e647f7c887ce	0.006078988194106528
211	0xbf8f032e49fd5cf2	-0.015142785675989565
212	0x3f8c7dd047e4dcff	0.013911845392256426
213	0xbf8c12afd31f9cfb	-0.013707517271497318
214	0x3f79ec60512c9b1c	0.0063289415727812125
215	0x3f8fb35baa660801	0.015478817117358547
216	0x3f63cddde6b74ff5	0.0024175008781899218
217	0xbf60d626c46ead14	-0.0020552403616044355
218	0x3f791054e64b0a5b	0.006119090689653629
219	0x3f7fba434c24ad55	0.007745993500331967
220	0xbf5d620ddacf78be	-0.0017933974552231525
221	0x3f9626a05cce1430	0.021631723083846477
222	0x3f7ca42fc8483d37	0.006992518091024017
223	0x3f732c270e97c53f	0.004680779043597482
224	0xbf8d5bd5eebd9508	-0.014335318897517726
225	0x3f9233c9da9ec2c5	0.01777568241931495
226	0x3f728275d10efdb4	0.0045189478123001565
227	0xbf5de6694078fc1e	-0.0018249538278636355
228	0x3f90032f23e4794d	0.015637146535590053
229	0x3f86c64de39a75f4	0.011120422848132507
230	0xbfcc2cddf255fc5c	-0.22011923153692947
231	0xbf8bf107cccacb25	-0.01364332288480836
232	0xbf4f8e570d5a83fd	-0.0009630131778132208
233	0x3f8e5c76edb6b97f	0.014824799661110387
234	0xbf97aa98458442aa	-0.023111705058058853
235	0x3f87e88220eeda67	0.011673943166767132
236	0xbf89ce0ffcd78445	-0.012600064185735014
237	0xbf822f5322b71834	-0.008879327294277407
238	0x3fa243fd48dfe910	0.03567496790488367
239	0xbfa175881e795531	-0.03409982082363639
240	0xbf13c1983078227e	-7.536403074238395e-05
241	0xbfa0efe2c6de2cc8	-0.03308018376909555
242	0x3f852538b0bc7d98	0.010324900525630551
243	0x3f9924b9597fedfa	0.024554153525953006
244	0xbf9ac6ab5a7f152f	-0.026148488424742652
245	0x3fb058ee7dec0525	0.06385698866144603
246	0x3f9bfef85fbea584	0.027339821666520617
247	0xbf9aa57aeb82e3f2	-0.026021881699055123
248	0x3f9ea958279264fb	0.029942872443460705
249	0x3f90855d63c7021b	0.016133746352126815
250	0xbf62603ff21e294f	-0.0022431611004708816
251	0xbf6cac5eba69a189	-0.003500161186185295
252	0xbf73ff00e9c0a035	-0.0048818622272293515
253	0x3f8affe1f7f40567	0.013183369998389606
254	0xbf7d0ddd7839add3	-0.00709330092977774
255	0x3fae37bdc5e45da8	0.05901902237581719

logratios_1d.classifier.net.initial_layer.bias f8 [2, 16]
0	0x3f857828b3eb36dc	0.010483091345487798
1	0xbfa681c9ddd4da0e	-0.04395895798591108
2	0x3f76a1193c9cc09d	0.005524729329224124
3	0xbfa314ff17ff54b9	-0.037269565276497336
4	0xbf6335eefe47e1b2	-0.002345053466566515
5	0xbf8eee4dff04d98f	-0.015102967591343467
6	0x3f95172fec929c89	0.02059626466202905
7	0xbf86e4751d6732c9	-0.01117793556195447
8	0xbf9703f1849334cf	-0.022475980488526667
9	0xbfa41ace608568c2	-0.039267014772762746
10	0xbf9ffdfbf3219fd4	-0.03124231025176967
11	0xbf80aef8f35ceb31	-0.008146233488891848
12	0x3f7ea18ee5a80e63	0.007478292648105264
13	0x3f8e23c7336932cb	0.014716678863942253
14	0xbf6269f8cb630a41	-0.0022477969424426207
15	0xbfa676677c9f67ed	-0.04387210270188278
16	0x3f81b3b11bcf2df9	0.008643516217396107
17	0xbf900fd12b7060fd	-0.015685337330155303
18	0x3f98bac86e816c28	0.024150020355914986
19	0x3f844db0c6dd8761	0.009913807934654963
20	0xbfa52e179ee824b7	-0.04136728110103987
21	0xbfa7f96b64978c5d	-0.0468247947972251
22	0xbfa3fe3f1cbdbe1a	-0.039049122103161873
23	0x3f979eedf3f154b6	0.023067205442505588
24	0x3f99b21e9a45a82d	0.025093534627935
25	0x3f8f98751362b4aa	0.01542750802431166
26	0xbf95376e374c904b	-0.020719263196170606
27	0x3f967ff46b423242	0.021972483679336692
28	0x3f8efc76b149d6b5	0.015129973683751666
29	0xbfa550746714d670	-0.041629445632150985
30	0x3fa5a97887b03c7b	0.04230858475067919
31	0xbf6aa443b9837719	-0.003252155565958936

logratios_1d.classifier.net.blocks.0.batch_norm_layers.0.weight f8 [32]
0	0x3fee4ee81ce6012e	0.9471321644232711
1	0x3ff0bff4f4c3a26b	1.0468644677258918
2	0x3feed085a9d1ec9f	0.9629543606564716
3	0x3fef69609198f806	0.981613430376229
4	0x3fef1cbd6cac6576	0.9722582933929249
5	0x3fee062d18752d3a	0.9382539251031752
6	0x3ff0e3fda3d8582e	1.0556618118475956
7	0x3fee0575d0402550	0.9381665294069226
8	0x3fed862d91b8fb7a	0.9226291509765894
9	0x3fed26076a218852	0.9108922074194743
10	0x3fed3a9fd8d9802e	0.9134062991470324
11	0x3ff0ce2e1b33a97b	1.0503369391031743
12	0x3ff061c743653cb1	1.0238716728816082
13	0x3fef818a7977b3b3	0.9845631000913414
14	0x3ff0a2153f96b748	1.039571045297139
15	0x3fefcefb30bb9baf	0.994016261273705
16	0x3fee17420e213a74	0.9403391147587414
17	0x3feea38bb1bc12ec	0.9574640723590995
18	0x3fee21068abb2e1a	0.9415314397423942
19	0x3feec5459936a590	0.9615810387087311
20	0x3feeda024da93d22	0.9641124264543672
21	0x3fed2a44e5bed788	0.9114098059860547
22	0x3fef3dd285acad9b	0.9762966738539264
23	0x3fee160e7eba6868	0.9401924586447992
24	0x3ff1da113c0aef95	1.1157390923899346
25	0x3ff2a7f7f172e0a6	1.1660079413978024
26	0x3ff04e8bd6305eed	1.0191763273959922
27	0x3fee5bd2343e7fcc	0.948708631553012
28	0x3fef25e09f24a92c	0.9733737095132589
29	0x3feec3008536f737	0.9613039590692328
30	0x3fee0db588ee0fb2	0.9391734766399991
31	0x3fef271416bafd93	0.9735203212693925

logratios_1d.classifier.net.blocks.0.batch_norm_layers.0.bias f8 [32]
0	0xbf966dc78a42e0c8	-0.021903150380894215
1	0x3faf27409cb628e3	0.060846346978978415
2	0x3f7159b6c5541d66	0.004235948513503151
3	0x3f9db7d00d556aa9	0.029021502317258783
4	0xbf7c8ea52b58dcf3	-0.00697197455661257
5	0xbfa7457c48ca029d	-0.0454520071843991
6	0x3fbad545c31c40f3	0.10481678021847411
7	0x3f92c45f5d041113	0.01832722668861304
8	0xbfb010a18a0e0b82	-0.06275376911621147
9	0xbf9fbf549d438c12	-0.031003305529235865
10	0xbfb14cf4567d98a2	-0.06758048163973965
11	0x3fc628be1005e32e	0.1731183603513044
12	0x3fc2d032e1e9e0a7	0.14697872191368797
13	0x3fc6208516fe023a	0.1728674280420977
14	0x3fcf96c8a9d924e6	0.2467890576684006
15	0x3f8c39c8542e807c	0.013782086438198109
16	0xbfa7eee57c5dfef3	-0.04674451010850857
17	0xbfa7e22cefb864ff	-0.04664745737336239
18	0xbfa42db696965bb4	-0.039411264307254085
19	0xbf603eb9f0ae9c3e	-0.0019830352443537527
20	0x3fb7ad7615c67388	0.09249055892582991
21	0xbfb80a4a602641a3	-0.09390702102087416
22	0xbf63f9f99828b70a	-0.002438533295637484
23	0xbfa582155725eb9a	-0.042008082283209805
24	0x3fc02726ac21e3b8	0.12619479565526404
25	0xbf72fe0aa59d8839	-0.004636804189290849
26	0x3fcc291313b4c2b0	0.22000349485599235
27	0xbfb02538b457c9cb	-0.06306795504477873
28	0xbfa02c9470334f62	-0.03159011716493755
29	0xbfa3b9929b60f33d	-0.03852518221581256
30	0xbfb2062505ceb52b	-0.07040625945838445
31	0x3f8b64666c367909	0.013375091721908665

logratios_1d.classifier.net.blocks.0.batch_norm_layers.0.running_mean f8 [32]
0	0xbfdc3c145307b387	-0.4411669550743728
1	0x3fe4ea5ed80b4df0	0.653609678231474
2	0x3fe9bbeaeef1cce8	0.8041891734013946
3	0xbfe78e7a1d989f43	-0.7361422136354822
4	0x3ff070cff75926be	1.0275420820275225
5	0xbfeb2b25886729f7	-0.8490169204827102
6	0x3fcd15966027d9b4	0.22722129531002866
7	0xbfd06e397af75188	-0.2567275715676023
8	0xbff00986b72be931	-1.0023257403505108
9	0x3fd111ecae385f86	0.26671902669613023
10	0x3ff86817cbe40edc	1.5254133190618893
11	0x3fd7121825a6dce3	0.36047938992437717
12	0xbfd56aba0c2fdf6b	-0.33463908376824375
13	0x3fd88a13e210a2d4	0.3834275920549264
14	0xbfd78aa2f8a505b4	-0.3678367069406605
15	0x3fcbf7f541404eda	0.2185045784577742
16	0xbfe3e80b58e79444	-0.6220757233064735
17	0x3ff45b6ce3cb5c45	1.2723206423013533
18	0x3f992c3e8de8f234	0.02458284131192752
19	0x3ff7d31ad268dfbe	1.4890392512443067
20	0x3fad4a7ec8e7e3a6	0.05720897867644874
21	0xbfd30f5f6c5dc036	-0.2978132780326662
22	0xbfe20dd3edfe2597	-0.5641879699989428
23	0x3ff55105168ee67e	1.3322802430324425
24	0x3fc10672c5ebdf0a	0.1330092874920797
25	0xbfad66252c8df0e9	-0.057419931114937324
26	0x3f861c6cd88f63e2	0.010796404227152171
27	0x3ff34380ff43de3e	1.2039804431241374
28	0xbfe435846a1df202	-0.6315328667256497
29	0xbfe3459d9914de7b	-0.6022480001328882
30	0xbfec33f3f945419a	-0.8813419216694911
31	0x3fe1028d674fbcfd	0.531561567096929

logratios_1d.classifier.net.blocks.0.batch_norm_layers.0.running_var f8 [32]
0	0x3fbc0b911377c117	0.10955149388587802
1	0x3fbcb60e601d5950	0.1121529564528363
2	0x3fd3b1c9a8e131e2	0.30772630207209606
3	0x3fbbe7cb0ba74b29	0.10900563272961662
4	0x3fd40d078ab3f02d	0.3132952551384303
5	0x3fc697a5fe0899e9	0.17650294212326337
6	0x3fa210ca44fe4ceb	0.03528434841350666
7	0x3fa2f8d4026dd5a6	0.03705465821887381
8	0x3fd26db3bf58df0c	0.28794568716283275
9	0x3fc060a3a3e87731	0.12794919493983906
10	0x3fea94bf7c7cc2ef	0.8306577140229744
11	0x3fa8109e05e080f0	0.04700177976360631
12	0x3fa32fce50d10e94	0.037474105229674454
13	0x3fa782b7d589722d	0.0459191749730262
14	0x3faa71b045e9b19f	0.05164862492970034
15	0x3fb83f90e8a0dfcb	0.09471994094280871
16	0x3fc5bde0eda5aad0	0.16985713580955641
17	0x3fe0ed5d3189c24f	0.528975102190154
18	0x3fafc931df2337d3	0.062081869591210335
19	0x3fe9723e04a3032f	0.7951955881654608
20	0x3fa5fb0bda9a8420	0.042930956301695966
21	0x3fc34f177696c55d	0.15085118570781733
22	0x3fc0aa8c60cca658	0.13020472265752647
23	0x3fe272bcc8b97102	0.5765060348890361
24	0x3fb131d4e90ef4b5	0.06716662111189715
25	0x3fb1a150810a74c8	0.0688677134553074
26	0x3fa5346073a02944	0.04141522799916911
27	0x3fdbee4d014fe846	0.4364197266401145
28	0x3fc5480b4c307ed9	0.1662611124056557
29	0x3fc032ca1f452d27	0.12654997374407026
30	0x3fd5e5990bb08b64	0.342138539710666
31	0x3fc101348eff25ad	0.13284928304919444

logratios_1d.classifier.net.blocks.0.batch_norm_layers.1.weight f8 [32]
0	0x3ff3b64545b8503f	1.2319996570049765
1	0x3ff2e74b086613c5	1.181468041236472
2	0x3ff0fa2013d11199	1.0610657476509913
3	0x3ff0182cb160bbbd	1.0059019974539603
4	0x3ff29e60387b0d1f	1.1636659818912631
5	0x3ff4236f444685aa	1.2586510340700934
6	0x3ff3e273b079b79c	1.242786111218698
7	0x3ff0c9ff0f472308	1.0493155094902153
8	0x3ff03c21a54a208d	1.0146805245040327
9	0x3fef8619d4086dd7	0.9851197377460562
10	0x3ff363d60b444cc5	1.2118740501507983
11	0x3ff39991fbe43c93	1.2249927367700237
12	0x3ff311f92537b54a	1.1918879941761866
13	0x3ff335f1dc10fa2a	1.2006701084461704
14	0x3fefd11b2763e923	0.9942756432858783
15	0x3ff3af19a7202e69	1.2302490738246894
16	0x3ff0c0091f663e6d	1.0468837000406908
17	0x3ff0314d490120b1	1.0120365955099653
18	0x3ff220a7f4bd9179	1.1329726753402538
19	0x3ff09af1bb04d198	1.0378281884596614
20	0x3ff1b134216f826c	1.1057626062467092
21	0x3ff24b7054fb549f	1.1434176749801634
22	0x3ff17466ac269204	1.0909182285914776
23	0x3ff1a732b7e1d27f	1.1033198531050912
24	0x3ff159ad6d7fe6d4	1.084393909199595
25	0x3ff062cdd72328fd	1.0241220859339244
26	0x3ff3095b8cacd73b	1.1897845740435986
27	0x3ff148f2b4824185	1.0803095866322974
28	0x3ff15272d35f628a	1.0826290375463565
29	0x3ff2f4c61a8ee597	1.1847592389516188
30	0x3ff296213b48f0a5	1.161652785855986
31	0x3ff33b16394c33f0	1.2019254911604058

logratios_1d.classifier.net.blocks.0.batch_norm_layers.1.bias f8 [32]
0	0x3fb04850eca8cf24	0.06360345628564495
1	0xbfae3b116d2d53a3	-0.05904440362670662
2	0x3fac45340e64dce4	0.05521547961910203
3	0xbf93a9ee48206337	-0.019202922012570425
4	0x3fb1b6eaaab072a9	0.06919733683794028
5	0x3fa51045e0b07173	0.0411397778300139
6	0xbfa8a78e763e8575	-0.04815335458193718
7	0x3f7a24eb6b9b1c00	0.00638286553448264
8	0x3f6ef33942604a5c	0.0037780874581668077
9	0xbfaff637362ff6f3	-0.062425351490658
10	0xbfa602e8dffee9a8	-0.0429909490043941
11	0x3f870acc1f06f7c8	0.0112510630577808
12	0x3f9b25c9863b807a	0.026511334245583808
13	0xbfa2b9f1a5f11238	-0.03657488966613126
14	0xbfa7a1d9fbbe40b5	-0.0461567039302521
15	0x3f9b8a84eb01129c	0.026895596354978055
16	0x3fa00f4016fb45d0	0.03136635094200424
17	0xbf624778b34a6e9e	-0.00223134588516223
18	0x3fbd3c72990f360c	0.11420360791017731
19	0xbf9440be82776f0c	-0.019778229439778847
20	0x3f9712e3f7080f30	0.022532998993496978
21	0x3fbdd858b55cad4b	0.11658243587287591
22	0x3f9ae4ca33a24680	0.026263389016611516
23	0x3faa28a514f05b8c	0.05109134560205239
24	0x3fa536802ec9b363	0.0414314324487808
25	0x3fa395b109791945	0.038251430899026086
26	0xbfa7811b4c41539f	-0.045906880434507295
27	0x3fab9c893ce4947d	0.05392865055390759
28	0x3fab69e7da2c059a	0.0535423711608118
29	0xbf98b34ba02dd670	-0.024121457721284434
30	0x3f91879903cc50bd	0.017118826729600956
31	0xbf9e5a885c14ac24	-0.029642229671633782

logratios_1d.classifier.net.blocks.0.batch_norm_layers.1.running_mean f8 [32]
0	0x3fab0bd5505817b5	0.052824655587797954
1	0xbf9e38ef6fe41101	-0.02951406593730699
2	0x3fb6f06fdf36a601	0.08960627746150608
3	0x3fc2d6381d6a3183	0.14716245113630685
4	0x3fb11d7cca3e4923	0.06685619294720317
5	0x3fb6663fe1bfc59e	0.08749770413830624
6	0x3fa29567b754bb6f	0.0362961207668978
7	0xbfb154cc6aa667bb	-0.06770017246017705
8	0xbf6b618b98dfc3c3	-0.0033424116618267787
9	0x3fc2c22ff093f51b	0.14655112502070086
10	0x3f8d882bb6880bec	0.014419881351392015
11	0x3fa2c0916b9be63f	0.03662542761408049
12	0x3f9f35460b5058f6	0.03047666019491487
13	0xbf9b322c27def536	-0.026558580335167302
14	0x3fc4c4e51ccc338b	0.16225875764976325
15	0x3f97484ab407f6b4	0.02273670886824304
16	0xbfc2defb7461eaba	-0.14742987807024638
17	0xbfb5e683209d16ab	-0.08554858728629237
18	0x3fa8645ff8a65fe1	0.04764079962041002
19	0xbfa4d3d7562b3fbc	-0.04067871977679213
20	0xbfba69da1759f679	-0.10317767210104901
21	0x3fa3344f034d39c8	0.03750845828345778
22	0xbfc26ee2ea6ea98a	-0.1440089840592232
23	0xbfb4e2cea53e481e	-0.08158580335864982
24	0xbfaa2ec27cbd3a83	-0.051137998320531806
25	0xbfbf771d29c884cd	-0.12291128416156312
26	0xbfb25c59600b024e	-0.07172163576888943
27	0xbfbac1d40c94f337	-0.1045200854031919
28	0xbfc5b515e110ad51	-0.16958878983983053
29	0xbfa89e88eab68929	-0.0480845247759752
30	0xbf837cabc7755ef9	-0.009515134834756621
31	0xbf674b618e1e9332	-0.0028435616849996842

logratios_1d.classifier.net.blocks.0.batch_norm_layers.1.running_var f8 [32]
0	0x3fb36a8057bc5efc	0.0758438314627447
1	0x3fb04445402e3338	0.06354172531991942
2	0x3f8c0aed003d1ec1	0.01369271428087815
3	0x3f8e2863d7e650c5	0.014725475336298985
4	0x3fb102ca92be9994	0.06644884188299321
5	0x3fb363eaee0c3176	0.07574337302884779
6	0x3fb25170dc42e2b4	0.07155518891785101
7	0x3f9bc691180ee770	0.02712465962733951
8	0x3fa222d44ad18589	0.03542197621642191
9	0x3f8d07f3f5b46728	0.014175325332462643
10	0x3fb3aa7ed9e61877	0.07682030505938707
11	0x3fb3e38e588ad9f7	0.07769097959212688
12	0x3fb0a60d76b8e41f	0.0650337614869305
13	0x3fb3d8f1baf43bac	0.0775290566855193
14	0x3f90512b52f3e7bb	0.015934636056932776
15	0x3fb0b8f6851b1a51	0.0653223109212402
16	0x3f95586114c3163c	0.020844952480521636
17	0x3f97d9102fa222e6	0.02328896799784532
18	0x3f91607756894c9f	0.016969551712759153
19	0x3fa1268ed02df7a3	0.033497298157257015
20	0x3f963f0ecc9e1290	0.021724921454295443
21	0x3f8b54e9a897ce90	0.013345551927137295
22	0x3f914e25ffdc5546	0.016899675122734402
23	0x3f907c74418d2aec	0.016099754811231756
24	0x3f957a42acd41240	0.02097419910298215
25	0x3faa39c4e0fba982	0.05122199293494402
26	0x3fa681f0febfebae	0.043960124108671436
27	0x3f99633f9696ad13	0.024792665067860997
28	0x3f99cddbe8f677b6	0.02519935235397216
29	0x3faaa53e829487e8	0.05204196304318015
30	0x3fa3bbb1d47660e3	0.03854137152228689
31	0x3faf8883f2e7fa0a	0.06158840503848147

logratios_1d.classifier.net.blocks.0.linear_layers.0.weights f8 [2, 16, 16]
0	0x3f98741038cdeab5	0.023880246607840678
1	0x3fb59b912fe91388	0.08440501613320184
2	0xbf982f8ac7254087	-0.023618858723523786
3	0xbfa8092375109273	-0.04694472126019358
4	0x3fa59b327f0217c9	0.04219968605416075
5	0x3f85eb145d825278	0.01070228491179502
6	0x3fb07f8506e9a143	0.06444579523816167
7	0xbf872133174c3981	-0.011293791912547093
8	0xbfad6c5b170894d4	-0.05746731430216703
9	0xbf7595601fdcae30	-0.005269408689666785
10	0x3f6d014cb88d9635	0.003540658803489883
11	0x3fb7e9ca8bace2b9	0.09341112051050517
12	0xbfb18a3538774674	-0.06851513508379431
13	0x3faa6f35da8d49ae	0.051629717758845714
14	0xbfb55cd470c6059c	-0.08344772103557435
15	0xbfa8d99c9e71d1e4	-0.04853524622095387
16	0x3f711c6c113204e6	0.004177496087437426
17	0xbfb420d35ec0e56d	-0.07862587989156618
18	0x3f92380f0c9acdfa	0.01779197229798333
19	0x3fa4a1593ec4d929	0.04029349223348994
20	0xbf993d119b0886ba	-0.024647021377069513
21	0xbf922127bbd4fb2a	-0.017704602088311074
22	0xbfae9cbcc871fb28	-0.059789561718380846
23	0x3f918d5dedafb2a0	0.017140834457608833
24	0x3fa0de679502bf4e	0.032946812572275705
25	0xbf80bca9f557439d	-0.008172347831448873
26	0xbf91407189f69c94	-0.016847394986737443
27	0xbfbc29e21a5cae8b	-0.11001408713917209
28	0x3fb2f5958d5a2c67	0.07405981732351706
29	0xbf6ce9576e4964a3	-0.0035292346604306065
30	0x3fb6173044c33cb4	0.08629132918143761
31	0x3faf1df3ea1be202	0.060775396659611416
32	0x3f674b390eff2bd9	0.002843486254254551
33	0x3fb6880d14eea165	0.08801347504652808
34	0x3fa081a17e6ef2ff	0.032239004787220076
35	0x3f9d9e5d6ce8a91e	0.028924426815288055
36	0xbf711083361088fc	-0.004166138213834932
37	0x3f80423f758e1485	0.007938857817644038
38	0xbfb1f06594cbdeb7	-0.07007441408847624
39	0xbf960010837b1337	-0.02148462107176671
40	0xbf727338ff7405c9	-0.004504416129976937
41	0x3f6e8b7beddda426	0.0037286205760449663
42	0xbf92cf4518084205	-0.01836879691296824
43	0x3fbc89b4675203de	0.11147620699377067
44	0x3f99c32423a845bd	0.025158466984128703
45	0x3fa3fdd135141dc2	0.03904584668094514
46	0xbfa7392b9fcdb0d2	-0.045358050591717394
47	0xbf931c9bf4d51dae	-0.018663822954548763
48	0x3f909d84efa680c9	0.016225888373470086
49	0xbfac5fd308ccc0f1	-0.05541858179492632
50	0x3fbd2dca0d286a49	0.11397993870961289
51	0x3f7e6d098ea0722c	0.007428204853593228
52	0x3f987147c412d035	0.02386963018643958
53	0x3fb2f39639c40a35	0.07402933988854772
54	0x3f9cb4a6befd08bc	0.02803288021755955
55	0x3f97fd4673e94a64	0.023427105736411838
56	0x3f98a91d858b68dd	0.024082623744882226
57	0x3fa8c9182e2fdbaf	0.04840922893338672
58	0x3f6649cb6e7d23a8	0.002720734908426132
59	0x3f8cb9c414fc9b86	0.014026195421662068
60	0xbf7f791bc341142f	-0.007683857391445988
61	0xbfa404d4c7b4d651	-0.03909935891935546
62	0x3f7639ffb8f18fff	0.0054264058263449036
63	0x3fbb67ed200ccc6f	0.1070545390364701
64	0x3fa2404c3d6485a9	0.03564680337354826
65	0x3fb9d9f243027f97	0.10098184715252355
66	0xbfa3a4781c6028d7	-0.038364175285168826
67	0xbfa398f1e2de8bf8	-0.038276251739510714
68	0x3fa975be51c6b95f	0.04972643612142024
69	0xbfb9585dd27c33a2	-0.09900461567686006
70	0x3f90e115fb98c115	0.016483634454005875
71	0x3f8efdb04f37364e	0.01513231031176612
72	0x3f97d9650f8524f4	0.023290232727309637
73	0x3f9493c851f8729e	0.02009499550159665
74	0xbf9bd3668c284fe6	-0.027173616699727086
75	0x3fb7be42829b5f26	0.09274688423772356
76	0xbfa2a6608c00196f	-0.036425606813326954
77	0x3fb4a0f94ecb4344	0.08058126615220568
78	0xbfb6de55beb6ccfc	-0.08933006197075949
79	0xbfa481dc37770ae0	-0.040053254862433496
80	0x3f9726ec4b0f934d	0.0226094170392515
81	0x3fb42591a33090a0	0.0786982558643694
82	0xbfa82ad9f3a000f4	-0.0472019300359551
83	0xbfb09102fedab54f	-0.06471270296124952
84	0x3f9e10e58ffb216f	0.02936133090295939
85	0xbf9f1c1d983c45bc	-0.030380690018380938
86	0x3fb7b04b4768605a	0.09253378384926361
87	0x3f6f532e1f9758b5	0.0038238430831639366
88	0xbfa11827e3aa2cf2	-0.03338741926298806
89	0xbf914a161d3b9245	-0.01688417962476964
90	0xbf901e08ed755762	-0.01573957394915427
91	0x3fb6e10952570cf2	0.08937128315215029
92	0xbfacac69665df844	-0.056002897020321046
93	0x3fae646f5ab36179	0.05936000806986192
94	0xbfb323c0ef5f39e3	-0.07476430744211586
95	0x3f873a4d38a9f9a2	0.011341670314547529
96	0xbfa308037144804f	-0.03717051274929927
97	0xbfb2ee6dba555e01	-0.07395063208729626
98	0x3fa575c2311fe2b7	0.04191405152955013
99	0x3fa9ae0b37270879	0.05015597389457666
100	0xbf960298b60a9cb1	-0.021494279967239908
101	0x3f90f369a714a2ce	0.016553545782843675
102	0xbfa9b6d2a702fc5b	-0.05022295273510543
103	0x3f98b854be3f494d	0.024140667068260502
104	0x3fa149e5a77cc918	0.03376691503071266
105	0x3f97d28f2d81fa81	0.023264157440730408
106	0xbf64be1a60d8e88b	-0.0025320544434893114
107	0xbfbbcc1f6a9f9f24	-0.1085834155379613
108	0x3fb1468354c44d45	0.06748219317915012
109	0xbf9e151f85c073a5	-0.029377453363952494
110	0x3fb90d0241bbbcdb	0.09785474877184035
111	0xbf84e31300c15c1f	-0.010198734722662249
112	0x3fa32dda509c8919	0.037459204044596635
113	0xbfa61e17501afb0d	-0.04319832661484755
114	0x3f9b3df9f6b41c0e	0.026603608782377157
115	0xbf9838025bb2e9b0	-0.0236511581867746
116	0x3f958e4dfabd45a7	0.021050661496081393
117	0xbfa6c2e50f921818	-0.04445567908355502
118	0xbfb5a3a1604c62ad	-0.08452805138621029
119	0xbf69a8bc43533491	-0.0031322171222201785
120	0x3fa037d3e2a11bd1	0.03167593137236902
121	0xbf9177255b4e52f5	-0.017056068132279518
122	0x3f81a3ee6ac648cf	0.008613455422878861
123	0xbfb3c53c515f1844	-0.07722832666976936
124	0xbfa1648a956176d9	-0.03397019456381906
125	0xbfb5390eff996e0c	-0.08290189495294714
126	0x3f7bc6e65105d73b	0.006781482385454225
127	0x3fb07e3687e0612b	0.06442585770890179
128	0x3fa72b4625f497be	0.0452520295460057
129	0xbfa1a57928576acd	-0.03446558587503077
130	0xbf885ad79fcf9969	-0.01189201790289181
131	0xbfa4208bed6df053	-0.039310810788237525
132	0xbfa7419ce95b181c	-0.04542246197301855
133	0x3fb1ef1c3ab7e953	0.07005478318743501
134	0xbfb8e2d46d2a3583	-0.09721114792974643
135	0x3fa5b682188f8c6c	0.042408051965843935
136	0x3f67f27897c4ee90	0.0029232364014698045
137	0x3fab029cbd50bb5d	0.05275430499056342
138	0x3faa331c791997fa	0.051171197684013195
139	0xbf6e4b2b9e1a9d2b	-0.003697953405964368
140	0xbf8723a50d976a09	-0.011298455693510527
141	0xbfb9b1a574804f5e	-0.1003669175555024
142	0x3fb1d17ee399c70f	0.0696029000917202
143	0xbfabbefa9a1b165f	-0.0541914284818119
144	0x3faf3a058e99d960	0.06098954549536262
145	0x3f8451eba9ab8ec6	0.00992187606374929
146	0x3fa20c50b30105ce	0.03525020775897368
147	0xbf912042519c5bb2	-0.016724621039511063
148	0x3f98c78f5f0a489c	0.02419876115397611
149	0x3fadd947ded0df8f	0.05829834551735679
150	0x3fa458708b35beae	0.03973724078502748
151	0xbf90061388ed6cc2	-0.015648179275882475
152	0x3f965b87e4e18d0f	0.021833537430564095
153	0xbfad78d1f06ce547	-0.05756240901832626
154	0x3f9331f6401a83dc	0.01874527708298844
155	0xbfb5e872226d6127	-0.08557809200772636
156	0x3fb50d8d5e7322db	0.08223804050352206
157	0x3f95d12a8d9c96ef	0.021305718320170305
158	0x3fb25e22d43f8fc1	0.0717489021477027
159	0x3fb337487e34fa21	0.07506230431770479
160	0xbf810c9617079353	-0.008324787690932622
161	0xbfafddb2547a5515	-0.062238285839308606
162	0x3f9a71cf8d28736d	0.025824778547860406
163	0x3fade3c1e76dd804	0.0583782763487051
164	0x3f80358e8e044fbc	0.007914651593217907
165	0x3f92c8549a6613cc	0.018342325137854762
166	0xbfb55c61794986eb	-0.08344086848367353
167	0x3f8fcc01115f8524	0.01552582582729884
168	0xbf7b7eba33512f0d	-0.006712653489625142
169	0x3f8c1ea024a25321	0.013730288618071964
170	0xbfb0ce8375061572	-0.06565114600205904
171	0xbfb41636ac73ccf9	-0.07846395216238368
172	0x3fbba6a97308f010	0.10801180895299489
173	0xbf9d6955c221d000	-0.02872213361156639
174	0x3fb70647896dc22d	0.089939566661777
175	0x3fa0f38a07d3d0b3	0.03310805650281292
176	0x3f8271d98914bbaa	0.009006213661079194
177	0x3fb0a03c67f3d287	0.06494500673199798
178	0x3f9f29f6a3b7da77	0.03043351530319646
179	0xbfaad667e2eea7d5	-0.052417036487284165
180	0x3fad5523fc0c7c92	0.05729019595877917
181	0xbfa0aac5122fef1a	-0.032552870245096524
182	0x3fb58db3c0a2f0fb	0.08419345334090515
183	0xbf8b70c23b0e38d6	-0.013398663928253656
184	0xbf9218ba86952260	-0.017672457184092827
185	0x3f6d4f48e324087b	0.003577844961115293
186	0xbf9393d9a891e3af	-0.01911869136208438
187	0x3fb4f1d093aa410d	0.0818148003111256
188	0xbfae7f31e605b4f8	-0.05956417019738497
189	0x3fa366b87faf3d2e	0.03789307173394217
190	0xbfb82126d810ac25	-0.09425585532214649
191	0xbfb41b26c1d1d856	-0.07853929740835616
192	0xbf98c32ea3df9326	-0.024182060958895545
193	0xbfa0df71a175fcdf	-0.03295474143942
194	0xbfa1e0b9f62958b2	-0.03491765146161309
195	0x3fadd810d11348a8	0.05828907539547973
196	0x3f8173a4d0e3e30e	0.008521354317495813
197	0x3faabbc32d0f331d	0.05221376347581084
198	0xbfb1b655c7e929f7	-0.06918846254954035
199	0x3fa49bc6dc3d56a8	0.040250982651440836
200	0xbf945401ce07d8d8	-0.019851711464036054
201	0x3f67314d23fdc091	0.002831125893799032
202	0x3fa874db3b604d14	0.04776654338652456
203	0xbfb273b1b7fb1a51	-0.0720778536006972
204	0x3fb684d065e1a138	0.08796408164346736
205	0xbfab7d20c56f6e54	-0.053689025975213994
206	0x3fb442073197ba3d	0.07913250885733532
207	0xbf93105ea3b728ef	-0.01861713289489669
208	0xbf841a31f90328ba	-0.009815588390115305
209	0xbfb32b74ad5c9f9a	-0.07488183243242333
210	0x3fa3bfce9a117bca	0.038572746569790775
211	0x3fa0795415eedfb4	0.03217566268671082
212	0xbf9f61a73eead903	-0.03064595529095816
213	0xbf971f3e801e1300	-0.022580124444647076
214	0xbfb07de4ba00f8a0	-0.0644209817992043
215	0x3fa576281a0395e5	0.041917088676011884
216	0x3f9b4be5ecb51a3c	0.026656715939021178
217	0x3f93eb747e3e8071	0.019452877240496883
218	0x3fa150fa6925b64a	0.03382093938385518
219	0xbfb4c3fa71a6d4b2	-0.08111539148997585
220	0x3fbe7e8022842a3e	0.11911774485285151
221	0xbfa4055467ba3a46	-0.039103162443201486
222	0x3fb925238b3adeb7	0.09822294377488104
223	0xbf98347908f6a15f	-0.023637667820055493
224	0x3fa99937f37483c5	0.04999708983292054
225	0x3fab6716fd3545d1	0.05352088776511333
226	0xbf8d2a28135ad3ef	-0.014240563479100713
227	0x3fa3688a8f763b55	0.037906961452896105
228	0x3fb3421f5400294f	0.07522769738003386
229	0x3fb8c35a430dd805	0.0967308438974613
230	0xbfb4439394f979f1	-0.07915613543580215
231	0xbf8737f7dc364d48	-0.011337219627228237
232	0x3f71a009ec18957b	0.0043030154788871134
233	0x3fa59b1fe337eb6d	0.04219913147604513
234	0xbf5385ea6672b0f6	-0.001191595941956667
235	0x3f8274b34954cd12	0.009011650729553487
236	0x3f97163121311797	0.02254559292875732
237	0x3fb786b835cc7738	0.09189940751499825
238	0x3fb56a26b8e153ef	0.0836509896628994
239	0x3fb02cee790c3a6c	0.06318560080783592
240	0x3f69eaa34731ca3f	0.003163641836686964
241	0x3fae12ff3f09c870	0.05873868603238541
242	0xbfa9d1cf20b9de68	-0.050428841347579134
243	0xbfa3f4fe588fa3be	-0.03897852736537953
244	0x3fa7acbbfcceaf6d	0.04623973332431217
245	0x3f8353a2b01585c8	0.009436865805301134
246	0x3faf83f0f06261ce	0.06155350622538301
247	0xbf918322535a6a36	-0.017101799333071287
248	0xbfa26c472efd8028	-0.03598234604464806
249	0xbf95085dbf9151af	-0.020539727036820995
250	0x3fab2606cac135d4	0.05302449440987869
251	0x3fb0c3552ad78508	0.06548054023689442
252	0xbfb508fa80edd6a0	-0.08216825149232898
253	0x3faa4d5e5c9cd6e5	0.05137152557874262
254	0xbfb5bf2718410cb1	-0.08494800893918143
255	0xbfa2a48b444ffaf9	-0.03641162117854963

logratios_1d.classifier.net.blocks.0.linear_layers.0.bias f8 [2, 16]
0	0x3fa25b2874d693a1	0.035851730596994764
1	0xbf9f4efaa6671f70	-0.030574718862936334
2	0x3f97a2a061d4720c	0.023081308337269887
3	0xbf59d4a413ef7a11	-0.0015765764544465358
4	0x3fa48be3b94df67f	0.040129772539313706
5	0x3fafa39981414700	0.06179504111118028
6	0x3fa06f4cc3274aa3	0.0320991504883257
7	0x3f9c6abb11a4fa44	0.0277508954543413
8	0x3fa38e1aeadc2072	0.03819355122510694
9	0xbf518432c5c175b5	-0.001069116194251191
10	0xbf4e335a963c26c1	-0.0009216492003087594
11	0x3fa01dec377a8aec	0.0314782922480584
12	0x3f916c8037aa15a9	0.017015460393414426
13	0xbfa83e3a85bf8fe1	-0.047349766565986114
14	0xbfaaa48cc3d5c94f	-0.052036665826465815
15	0x3f9db629d29efecb	0.029015210609712832
16	0xbfa2375c969169db	-0.035578626041303095
17	0xbfa261eb430e6e26	-0.03590331262168105
18	0xbf88ca77ec351540	-0.012104927917457986
19	0x3fa07bd62984bf36	0.03219479805772922
20	0xbf624e47215b5efc	-0.0022345914138489614
21	0xbfa1a9f188570a4f	-0.034499690907541784
22	0xbf9f3f5ecc66e530	-0.030515176034645097
23	0x3f8a6cef0172e27e	0.012903086883271127
24	0x3faac84bf86e5e5a	0.0523093930016187
25	0xbf9dc79a387b7e63	-0.029081735322391455
26	0xbfad7965af2e0344	-0.057566812166447906
27	0x3f6a867e83250508	0.003237959951690631
28	0xbfa9cd51b993c018	-0.05039458647104328
29	0xbfa9445ba2797433	-0.04934965475397526
30	0xbfae8725f8ef3f19	-0.05962484992744361
31	0x3f62872d315885d6	0.0022617228194270296
